SRCNN/checkpoints/x6/best.pth (torch, 231039 bytes, 5 tensors)

conv1.weight f4 [64, 1, 9, 9]
0	0xbd2b76d1	-0.04186136
1	0x3be32af9	0.006932613
2	0xbd544a40	-0.051828623
3	0x3d3a11ad	0.045427013
4	0xbdba9bb4	-0.09111729
5	0x3dad890a	0.08473404
6	0xbd9f4bcb	-0.07778128
7	0xbdaf8592	-0.085703984
8	0xbd8b1825	-0.067917146
9	0x3d5b3ef9	0.053526852
10	0xbd1ad6b0	-0.0378024
11	0x3d38e5b2	0.04514093
12	0xbdb9275d	-0.09040711
13	0xbd81cd95	-0.0633804
14	0xbd17b4a5	-0.03703751
15	0xbc96fca5	-0.018431017
16	0xbda78e70	-0.08181465
17	0x3d9a09b3	0.07521381
18	0xbcbc541b	-0.022989323
19	0x3d200c35	0.03907414
20	0x3da8de5f	0.08245539
21	0x3ccd569f	0.025065718
22	0x3d0f5839	0.034996245
23	0x3de49726	0.11161642
24	0xbd3ce34f	-0.046115216
25	0x3d1e6252	0.038667984
26	0xbd3ea57b	-0.046544533
27	0x3da8c25f	0.08240198
28	0x3dbc759b	0.09202119
29	0xbdc9d9e1	-0.0985601
30	0x3dcb743f	0.099342816
31	0x3d6d31a2	0.05790866
32	0x3d597ba7	0.05309644
33	0x3d4d3148	0.050095826
34	0x3dc50b58	0.09621304
35	0xbc3b6a7a	-0.01143896
36	0xbdbaced5	-0.09121481
37	0xbcec526b	-0.028847894
38	0xbd98bca2	-0.07457854
39	0x3c3fb4b4	0.011700798
40	0xbc82bc36	-0.015958887
41	0xbd60f10f	-0.05491739
42	0xbbba41c3	-0.005684109
43	0x3ddfafef	0.109222285
44	0xbbb09f47	-0.005390081
45	0x3bc8c96c	0.006127527
46	0xbc6d9481	-0.014500738
47	0x3cab4b52	0.020909939
48	0x3dd329a8	0.1031068
49	0x3d9481fa	0.072513536
50	0x3d340ce7	0.043957617
51	0x3ce94b47	0.028478278
52	0x3cf716a8	0.03016217
53	0x3d3e0b79	0.04639766
54	0xbc422f55	-0.011852105
55	0xbdce2967	-0.100664906
56	0xbd866031	-0.06561316
57	0x3dc9d04b	0.09854182
58	0x3c3083a9	0.010773578
59	0xbdafe9a8	-0.08589488
60	0x3cb067ec	0.021533929
61	0x3dc3bbcc	0.09557304
62	0xbdd00a84	-0.10158256
63	0xbd941e9f	-0.07232403
64	0xbd2b5a02	-0.041833885
65	0x3becc6f6	0.0072258664
66	0xbcb9bbb4	-0.022672512
67	0xbc0cfbc2	-0.008604946
68	0xbdd67a95	-0.104725994
69	0x3d639fc8	0.0555723
70	0x3dceb486	0.10093026
71	0x3d91a849	0.07112176
72	0xbd9b9153	-0.07596078
73	0xbdb25ac7	-0.08708721
74	0x3d47dcda	0.048794605
75	0x3bb37b22	0.005477325
76	0x3d47e032	0.048797794
77	0xbdd7c348	-0.10535294
78	0xbb60eedf	-0.0034322066
79	0x3da6eb0f	0.081503026
80	0x3d5fb0aa	0.05461184
81	0x3b4af7de	0.0030970494
82	0x3cab05c5	0.020876775
83	0xbc3d732c	-0.011563104
84	0xbd7f494b	-0.062325757
85	0xbd309771	-0.043113176
86	0xbd8c8d95	-0.06862942
87	0x3dbb57d7	0.091476135
88	0x3d7823c5	0.060580987
89	0x3d1d8358	0.038455337
90	0xbdaff183	-0.085909866
91	0x3dae6468	0.08515245
92	0x3d0c3569	0.034230623
93	0x3d9be55e	0.07612108
94	0xbd358403	-0.04431535
95	0x3cbc817c	0.023010962
96	0x3ddd2035	0.10797159
97	0x3d9826d8	0.07429284
98	0x3db59841	0.08866931
99	0xbcc0361c	-0.023463301
100	0x3dad89f7	0.0847358
101	0xbdb2052d	-0.086923935
102	0x3c1cc1ac	0.009567659
103	0xbd7fc9be	-0.062448256
104	0xbcd396da	-0.025828768
105	0xbce860cf	-0.028366474
106	0x3c0852c1	0.008320511
107	0x3dcebd91	0.10094751
108	0x3d600d8b	0.054700416
109	0xba0da3f4	-0.0005403154
110	0x3da16dbd	0.07882259
111	0xbd6a12b5	-0.057146747
112	0x3d69fef4	0.057127908
113	0xbc2cba75	-0.010542502
114	0xbca0db6a	-0.019635875
115	0x3c4e0892	0.0125752855
116	0xbdafb51a	-0.08579464
117	0x3c604c10	0.01369001
118	0x3d1d78f6	0.038445435
119	0x3dc4d326	0.09610586
120	0xbd0a07c3	-0.03369881
121	0x3d27bc06	0.040950797
122	0x3de521cb	0.11188086
123	0xbd404ac9	-0.04694632
124	0x3dd9511f	0.10611176
125	0xbd61259a	-0.0549675
126	0x3d4b5b0d	0.04964738
127	0x3d36155c	0.044453964
128	0x3d02dc27	0.031948235
129	0x3db546fa	0.08851428
130	0xbd34f38f	-0.044177588
131	0x3cf40c2d	0.029790962
132	0x3a90b7dc	0.0011041122
133	0xbdaaca65	-0.08339385
134	0xbcde317b	-0.027123204
135	0xbd96ad12	-0.07357229
136	0x3d4c9fff	0.04995727
137	0x3c303eb1	0.010757134
138	0x3c38fc66	0.011290645
139	0xbd083e15	-0.03326233
140	0x3a5bbefa	0.0008382645
141	0xbd0ccb87	-0.034373786
142	0x3d026a6b	0.03183977
143	0x3ddc4d5b	0.10756942
144	0x3c92ce13	0.01792053
145	0xbd44d4ef	-0.04805463
146	0xbd88ef52	-0.06686272
147	0x3c1495a0	0.0090688765
148	0xbda79ada	-0.081838325
149	0xbdaa0a37	-0.083027296
150	0xbd9337c8	-0.07188374
151	0xbd19b4cd	-0.03752594
152	0x3c077677	0.00826799
153	0x3d9fb83d	0.077988125
154	0x3d363acb	0.044489663
155	0x3db0cb20	0.08632493
156	0xbd8d5d00	-0.06902504
157	0x3c25108c	0.010074746
158	0xbdc90138	-0.098146856
159	0x3d83bc22	0.06432368
160	0x3cc12add	0.02358001
161	0x3ddcd4aa	0.1078275
162	0xbdb9b211	-0.090671666
163	0x3da9a52d	0.08283458
164	0x3dd03cf2	0.101678744
165	0x3dde7340	0.10861826
166	0x3d220ab2	0.03956098
167	0x3e01e158	0.12683618
168	0x3dd20cfe	0.10256384
169	0x3de98e13	0.11404052
170	0x3ca5ff3c	0.020263307
171	0xbdcd4b67	-0.100241475
172	0xbc2e1b99	-0.010626697
173	0x3ce3a190	0.027787
174	0xbd6a3046	-0.057174943
175	0xbd25bfa1	-0.040465955
176	0xbda6214e	-0.08111821
177	0xbc326a31	-0.010889576
178	0x3e02dbae	0.12779114
179	0x3d3ee42c	0.04660432
180	0xbcb7a559	-0.022417711
181	0xbbad5ccd	-0.0052906037
182	0x3da08e9c	0.078397006
183	0xbd9cc3f2	-0.07654561
184	0xbd748a28	-0.05970207
185	0xbc10db74	-0.008841384
186	0xbd07e2f8	-0.03317544
187	0x3dbaa258	0.09112996
188	0x3ddfacb4	0.109216124
189	0xbe01d8af	-0.12680314
190	0xbddbc350	-0.10730612
191	0xbdcc4ff7	-0.099761896
192	0x3d843deb	0.064571224
193	0x3dee1d74	0.116267115
194	0xbd6b69de	-0.05747401
195	0xbca5c842	-0.020237092
196	0x3d8e7362	0.06955601
197	0xbd28b0c9	-0.04118422
198	0x3d938f8e	0.07205115
199	0x3c1a79c6	0.009428447
200	0xbcc48337	-0.02398835
201	0x3cefc5d5	0.029269138
202	0x3d75a364	0.059970275
203	0xbc4e347f	-0.012585758
204	0xbd6a9f97	-0.057281103
205	0x3d03cd21	0.032178048
206	0x3cfc0880	0.030765772
207	0xbced66de	-0.028979715
208	0xbd3c0299	-0.045900915
209	0x3d8744ec	0.06604943
210	0xbc976c36	-0.018484216
211	0x3bb537aa	0.0055303173
212	0x3d812de8	0.06307584
213	0xbd4f68fb	-0.050637227
214	0x3d52f718	0.05150518
215	0xbbabae0b	-0.0052392534
216	0x3ca2869c	0.019839577
217	0xbdc9cc4c	-0.0985342
218	0xbc6d9d0e	-0.014502777
219	0x3c513b33	0.012770462
220	0xbdaa9fff	-0.08331298
221	0xbd9772f7	-0.07394975
222	0x3d500cb7	0.050793376
223	0xbcb72669	-0.022357183
224	0x3d9665c3	0.07343628
225	0xbe19d05b	-0.15020888
226	0xbdcaf4be	-0.09909962
227	0xbdf75465	-0.12076644
228	0x3d14b559	0.03630576
229	0xbbab3487	-0.0052247676
230	0xbcba4d42	-0.022741918
231	0xbca62357	-0.020280523
232	0xbdb497f1	-0.08818043
233	0x3ce1e94c	0.027577065
234	0xbbb57c72	-0.0055385167
235	0xbdc158ab	-0.0944074
236	0x3d34f74f	0.044181164
237	0x3c84ee85	0.016227016
238	0xbdb37364	-0.087622434
239	0x3da187e1	0.07887245
240	0x3d9fb19f	0.077975504
241	0xbb34d4e4	-0.0027592713
242	0xbd7cf609	-0.061758075
243	0x3bbca064	0.0057564247
244	0x3dae2c7b	0.08504578
245	0x3dd2a333	0.10285034
246	0xbda96986	-0.0827208
247	0xbd48df76	-0.049041234
248	0x3db3a041	0.087708004
249	0x3d636545	0.0555165
250	0x3d8f8da3	0.07009437
251	0xbd5cc749	-0.05390099
252	0x3dc6e822	0.097122446
253	0xbdb8418a	-0.089968756
254	0xbb82f027	-0.0039959135
255	0x3b71702d	0.0036840544

conv1.bias f4 [64]
0	0xbcbf6209	-0.023362176
1	0xbd90e005	-0.07073978
2	0xbd0b8669	-0.03406373
3	0xbd89d38c	-0.067298025
4	0x3d1f21fc	0.03885077
5	0xbccb717a	-0.024834383
6	0x3d834562	0.06409718
7	0x3d506b10	0.050883353
8	0x3e16b10b	0.14715974
9	0xbd57b571	-0.05266327
10	0x3bd3f342	0.0064682076
11	0x3cca173f	0.024669288
12	0xbdcb1a48	-0.09917122
13	0x3db8166e	0.08988653
14	0x3d958ef8	0.0730266
15	0x3d875bc9	0.066093035
16	0xbd14d12f	-0.036332306
17	0xbd6cd741	-0.05782247
18	0x3d6a0119	0.057129953
19	0x3d8b4b4b	0.0680147
20	0x3c7d6aae	0.015467329
21	0xbd2209f8	-0.03956029
22	0xbdb679c9	-0.089099474
23	0x3d96e124	0.07367161
24	0xbd750314	-0.05981739
25	0x3da1c636	0.07899134
26	0xbcba9284	-0.022774942
27	0xbcd97f68	-0.02655001
28	0x3d06c5bd	0.03290342
29	0x3d007833	0.03136463
30	0x3dc7ad0b	0.09749802
31	0xbcab818f	-0.020935802
32	0x3d48a84a	0.048988618
33	0x3d2a5102	0.04158116
34	0x37b07ca0	2.1038868e-05
35	0xbdd1c7c2	-0.10243179
36	0xbcb84300	-0.022492886
37	0x3dbc6d33	0.092005156
38	0xbdc0fadb	-0.09422847
39	0x3d010d1b	0.03150664
40	0xbd77e573	-0.060521554
41	0xbd626695	-0.05527361
42	0x3deb2480	0.11481571
43	0xbc164f4b	-0.009174178
44	0x3d268bc1	0.040660623
45	0x3cdbfcf3	0.026854014
46	0xbd7afcca	-0.061276235
47	0xbde38785	-0.11109833
48	0xbdd2c98c	-0.10292348
49	0xbd03cb92	-0.03217656
50	0xbd84117a	-0.06448646
51	0xbdd3cf74	-0.10342303
52	0x3d480f94	0.04884298
53	0xbc377716	-0.011197826
54	0x3c38b765	0.011274193
55	0xbd15e8c7	-0.036598947
56	0x3c395a07	0.011312968
57	0xbd47cf20	-0.048781514
58	0xbb6ea3a8	-0.0036413465
59	0x3d85d104	0.06534007
60	0x3dd27b17	0.10277384
61	0xbdc85541	-0.09781886
62	0xbe0d3b0f	-0.1379206
63	0xbdb01aa9	-0.08598835

conv2.weight f4 [32, 64, 5, 5]
0	0x399a8598	0.00029472704
1	0x3bb14f1c	0.005411042
2	0xbc9ed579	-0.019388901
3	0xbcf842e7	-0.030305339
4	0xbc7e1da8	-0.01551
5	0xbb45f0f5	-0.0030203436
6	0xbc62354e	-0.013806654
7	0xbccfe065	-0.025375554
8	0xbcb7f5b7	-0.022456033
9	0xbbf6a470	-0.0075269267
10	0x3ca85cc2	0.020552043
11	0xbc50ce37	-0.012744478
12	0xbbe720e0	-0.0070534796
13	0xbcaeeb5c	-0.021352462
14	0x3bdc59fd	0.0067245946
15	0x3c019040	0.007907927
16	0x3cccb6ef	0.024989573
17	0x3c1c2d7f	0.0095323315
18	0xbb04e234	-0.002027643
19	0x3caf1c0e	0.021375682
20	0x3cc347b0	0.023837894
21	0x3d00a170	0.03140396
22	0xbc36261b	-0.0111174835
23	0x3c757d23	0.014983448
24	0xbc845e0a	-0.016158123
25	0xbc639e95	-0.013892789
26	0x3ca5b902	0.02022982
27	0x3c52b94e	0.012861563
28	0xbc4e8aa6	-0.012606299
29	0xbc6f17bc	-0.014593061
30	0xbc3a4041	-0.011367858
31	0x3cac98c5	0.02106894
32	0x3c2c9fb9	0.010536128
33	0x3b5df863	0.0033869974
34	0xbc71634d	-0.014733148
35	0x3c1b938a	0.009495625
36	0xbb81342d	-0.0039429874
37	0x3c871cd2	0.016493235
38	0x3bf9e3b7	0.0076260227
39	0x3c56310b	0.013073216
40	0xbbdfc515	-0.006828914
41	0x3aa417f0	0.0012519341
42	0xbc46c639	-0.012132221
43	0x3bf39280	0.0074332356
44	0xb924fbb4	-0.00015734026
45	0xbca17055	-0.019706884
46	0x3c7bdd32	0.015372561
47	0x3c3d73f4	0.01156329
48	0x3c858b89	0.016301887
49	0x3c4d96a0	0.012548119
50	0x3d8ce346	0.068792865
51	0x3dd32122	0.10309054
52	0x3d47a6e1	0.048743133
53	0x3d343efa	0.04400537
54	0x3d0ad31b	0.033892732
55	0x3ce2fa58	0.027707264
56	0x3d851f21	0.06500078
57	0x3d806e9e	0.062710986
58	0x3d3ac2a6	0.045595787
59	0x3d18ffc8	0.037353307
60	0x3d99d423	0.07511165
61	0x3d85f728	0.06541282
62	0x3d0ac4c4	0.033879057
63	0x3d0e1c01	0.034694675
64	0x3cb3a838	0.021930799
65	0xbcd02f73	-0.02541325
66	0x3b5a39fb	0.003329872
67	0x3b78a5d9	0.003794065
68	0xbc01395f	-0.0078872135
69	0xbd0567a5	-0.032569546
70	0x3d216f35	0.039412696
71	0x3d1facc4	0.03898312
72	0x3c8b6d4d	0.017019892
73	0x3bbecb85	0.0058226013
74	0x3c68f860	0.014219373
75	0x3c2e2462	0.0106287915
76	0xbc351ec5	-0.011054699
77	0xbc756f46	-0.014980143
78	0xbc8fc73c	-0.017551057
79	0xbc4b80bc	-0.012420829
80	0xbb337023	-0.002738007
81	0x3ca27e22	0.019835535
82	0xbc663b4d	-0.014052224
83	0xbcaa619f	-0.020798502
84	0x3cb3dd11	0.021955999
85	0x3c705774	0.014669288
86	0x3c15b3ad	0.009137076
87	0xbc7ead10	-0.015544191
88	0x3c975e85	0.018477688
89	0x3c37fa64	0.011229131
90	0x3b9565bc	0.004559247
91	0x3ca02eba	0.019553531
92	0x3c0abadc	0.008467402
93	0x3c86cf7c	0.016456358
94	0xbbd1bcbf	-0.006400674
95	0x3c8c20d7	0.017105503
96	0xbc292f84	-0.01032627
97	0x3c00728c	0.00783981
98	0xbc66a6f1	-0.014077888
99	0xbcb0c734	-0.021579362
100	0xbca1a4ef	-0.019731967
101	0xbc8afbc1	-0.016965749
102	0x3c777852	0.01510437
103	0x3cd2bdb6	0.025725227
104	0x3c8c425d	0.017121488
105	0x3a9a6d93	0.0011781923
106	0x3ac35364	0.0014902172
107	0x3baacc46	0.0052123396
108	0x3cd214aa	0.025644619
109	0x3c7a2978	0.015268676
110	0xbc581808	-0.013189323
111	0xbc46804e	-0.012115551
112	0x3cb3c30d	0.021943593
113	0x3c76755b	0.015042628
114	0xbcb905f3	-0.022585845
115	0xbc99cf3f	-0.01877558
116	0x3c6fbf68	0.014633037
117	0xbc2c122e	-0.010502381
118	0x3ca505d2	0.020144377
119	0x3c90768f	0.017634658
120	0xbc98bf58	-0.018645927
121	0x3bdd3bfc	0.0067515355
122	0xbb65d079	-0.0035066886
123	0xbcc2ee32	-0.023795221
124	0x3c067db1	0.008208678
125	0xbb4f5213	-0.0031634613
126	0xbba10a58	-0.004914563
127	0xbd44eeee	-0.048079424
128	0xbd00404e	-0.031311326
129	0xbd204ba8	-0.03913465
130	0xbd48564e	-0.04891043
131	0xbcb96b9c	-0.02263432
132	0xbd4a7201	-0.04942513
133	0xbcd5293b	-0.026020637
134	0xbd3d213f	-0.046174284
135	0xbc90c9c3	-0.017674332
136	0xbcaf25e8	-0.02138038
137	0xbc4edb1b	-0.012625481
138	0x3c4d786d	0.012540919
139	0xbbb360a5	-0.0054741674
140	0x3cb9aa6a	0.022664268
141	0x3c823e2a	0.015898783
142	0xbc657a6e	-0.01400624
143	0x3bbeeffb	0.0058269477
144	0x3cc308c1	0.023807885
145	0x3d0302bd	0.031985033
146	0x3d3d6206	0.04623606
147	0x3d545f8b	0.05184893
148	0x3cdbcc01	0.026830675
149	0x3c25f565	0.010129307
150	0xbc4d5412	-0.012532251
151	0x3a3af5da	0.00071319717
152	0xbc6690cc	-0.014072608
153	0x3cde17bb	0.027110925
154	0xbc993d1a	-0.018705893
155	0x3cbec175	0.023285607
156	0x3c9418b3	0.018078184
157	0xbca49e52	-0.020095024
158	0xbc5a131c	-0.01331022
159	0x3ccbed83	0.024893528
160	0xbafee68a	-0.0019447368
161	0xbc84c23d	-0.016205901
162	0x3b067dc0	0.002052173
163	0xbb9e8aff	-0.004838347
164	0x3b87b67c	0.004141627
165	0x3c33065c	0.010926809
166	0xbca3a7cb	-0.01997747
167	0xbc404c95	-0.011737009
168	0x3945b508	0.00018854823
169	0x3cc5034e	0.024049427
170	0xbc940b47	-0.018071784
171	0xbc47e03d	-0.012199459
172	0x3c755838	0.014974646
173	0x3cc86d8d	0.0244663
174	0x3b6de55e	0.0036300044
175	0x399b7d84	0.0002965742
176	0x3c1fdc9e	0.009757189
177	0xbbf80f1c	-0.0075701606
178	0x3c3eb140	0.011638939
179	0x3cacc183	0.021088367
180	0x3caabf5a	0.020843197
181	0xbcbd791d	-0.02312904
182	0x3ca1a681	0.019732716
183	0x3cc0603d	0.02348339
184	0x3c1b9c0a	0.009497652
185	0xbb8f8601	-0.004379988
186	0xba751815	-0.0009349597
187	0xbc75ea9d	-0.015009549
188	0xbb2f6e50	-0.0026768632
189	0x3c83c3a8	0.016084507
190	0xbb81c46b	-0.0039601824
191	0xbb08be1e	-0.0020865272
192	0xbb5d7b3c	-0.0033795377
193	0x3a1c1f94	0.0005955633
194	0x3b2ea5d4	0.0026649134
195	0xba92c3ee	-0.0011197308
196	0xbcb97072	-0.022636626
197	0xbbdd1a3f	-0.0067475135
198	0xbc3ef9cb	-0.011656235
199	0xbc16816a	-0.009186128
200	0x3cf566dd	0.029956276
201	0x3d200f7f	0.03907728
202	0x3d50a275	0.05093618
203	0x3d2f092f	0.042733368
204	0x3d95f503	0.07322123
205	0x3dd95958	0.10612744
206	0x3d83538c	0.0641242
207	0x3d7d7e63	0.06188811
208	0x3d4860d3	0.048920464
209	0x3d796fc0	0.06089759
210	0x3ca1cbd2	0.01975051
211	0xbb97e299	-0.004635167
212	0x3af209fe	0.0018466113
213	0x3c0b3951	0.008497552
214	0xbc75a918	-0.014993928
215	0x3c62164c	0.013799261
216	0xbca9431f	-0.020661889
217	0xbca5e26c	-0.020249568
218	0xbcfa3659	-0.030543493
219	0xbd04ad51	-0.03239185
220	0x3c417889	0.011808523
221	0x3d33b3bc	0.04387258
222	0x3d0a45a2	0.033757813
223	0xbb6b11bf	-0.0035868732
224	0x3d46d030	0.048538387
225	0xbc6ee591	-0.0145811
226	0x3a818515	0.000988158
227	0xbc66d0af	-0.01408784
228	0xbc927810	-0.017879516
229	0xbbce3f54	-0.0062941704
230	0x3c4c9794	0.012487311
231	0x3af7ec69	0.001891506
232	0x3c6b6d0b	0.01436926
233	0x3c2fc376	0.010727754
234	0xbca22e43	-0.01979745
235	0xbbae6711	-0.005322345
236	0xbacc71b4	-0.0015597851
237	0xbbed507f	-0.007242262
238	0xbc4b7fd1	-0.0124206105
239	0xbce79211	-0.028267892
240	0xbcc0b13c	-0.023522012
241	0xbbd07275	-0.0063613006
242	0xbc0772a0	-0.008267075
243	0xbcbd995b	-0.023144415
244	0xbc0bc871	-0.008531676
245	0x3c19222c	0.009346526
246	0xbb9347e8	-0.004494656
247	0xbc6cbece	-0.014449788
248	0xbb033a4a	-0.0020023757
249	0x3c47a029	0.012184181
250	0xbb102f9f	-0.002200104
251	0xbb808bf6	-0.0039229346
252	0xbc493417	-0.012280486
253	0x3c08d1b4	0.008350778
254	0x3c96af81	0.018394234
255	0xbce23f53	-0.027618086

conv2.bias f4 [32]
0	0xbc0d4646	-0.0086227115
1	0xbcb0b2ba	-0.021569598
2	0xb994ec6f	-0.00028404917
3	0x3c7c2a49	0.015390941
4	0x3cd3970b	0.025828859
5	0x3cb7a8b4	0.022419311
6	0xbc4b58e8	-0.012411334
7	0x3b7c4818	0.003849512
8	0x3c0649e8	0.008196332
9	0xbc2eddc0	-0.0106729865
10	0x3ab2f22f	0.0013652499
11	0x3c2a046e	0.010377033
12	0x3cccaafe	0.02498388
13	0x3c524bf6	0.012835493
14	0x3aaea04f	0.0013322922
15	0xbb88a09c	-0.0041695368
16	0xbc805ac9	-0.01566829
17	0xbc9044aa	-0.017610867
18	0x3c8c8b58	0.017156288
19	0x3cafec23	0.021474903
20	0x3cfc25cb	0.03077974
21	0xbb5b39c9	-0.003345119
22	0xbb951e07	-0.0045506987
23	0x3afcc60f	0.00192851
24	0x3c1e6f9e	0.009670166
25	0xbc3d63aa	-0.011559406
26	0x3c74c065	0.014938449
27	0x3cbd5bc5	0.023115048
28	0x3c1046a4	0.008805905
29	0xbc3ef851	-0.011655883
30	0x3bf57729	0.0074910116
31	0xbb0723d1	-0.0020620713

conv3.weight f4 [1, 32, 5, 5]
0	0x3c9de580	0.019274473
1	0x3c964eaa	0.018348057
2	0xbad46aea	-0.0016206179
3	0x3cca0bdd	0.02466386
4	0x3cfa12b4	0.030526496
5	0xbcee4f1d	-0.029090459
6	0x3ae05aa3	0.0017116856
7	0xbd0a1144	-0.033707872
8	0x3b913e1f	0.0044324542
9	0x3c2bf43f	0.0104952445
10	0xbb06fa76	-0.0020596064
11	0x3ce7e09f	0.02830535
12	0x3c5012da	0.012699807
13	0xbcf05875	-0.029339055
14	0xbb32053d	-0.0027163767
15	0xbc7a39c0	-0.015272558
16	0xbce609dd	-0.028080875
17	0x39dc2e25	0.0004199605
18	0xbd006b98	-0.03135261
19	0x3cc2375c	0.023708038
20	0x3b9be0e3	0.004757033
21	0x3c54f20f	0.012997164
22	0x3ca45076	0.020057898
23	0x3ce5aace	0.028035548
24	0xbc8c540f	-0.017129926
25	0x3b25cf2d	0.0025300488
26	0xbd06f607	-0.032949474
27	0x3c06aad3	0.008219439
28	0x3cda3edf	0.026641307
29	0xbcb36f10	-0.021903545
30	0x3caa799e	0.020809945
31	0xbc84b62a	-0.016200144
32	0x3c25b2e9	0.010113456
33	0xbc7a9293	-0.015293735
34	0x3be689a1	0.0070354496
35	0xbd07f786	-0.03319504
36	0x3cd94e15	0.02652649
37	0xbc04ec76	-0.008113017
38	0x3d068a34	0.032846645
39	0xbc4ceeb9	-0.012508088
40	0x3c805a19	0.015667962
41	0xbc87cfee	-0.01657864
42	0xbc6dd068	-0.01451502
43	0xbc0c3a4e	-0.008558823
44	0x3c8c762c	0.017146192
45	0x3c6a6cf7	0.014308206
46	0x3ca972a8	0.020684555
47	0xbbb326ef	-0.0054672877
48	0x3b9cfab9	0.0047906307
49	0x3cb48a1f	0.022038518
50	0xbc63759c	-0.013883021
51	0xbc3f6f9c	-0.011684325
52	0x3cdbec37	0.026846034
53	0xbcf4dacd	-0.029889489
54	0xbc8c9d42	-0.01716483
55	0xbca13757	-0.019679708
56	0xbbf6351b	-0.007513655
57	0xbcd580aa	-0.026062328
58	0x3c05d87e	0.008169292
59	0xbccab8d6	-0.02474634
60	0xbc801d81	-0.015639069
61	0xbd0d4d78	-0.034497708
62	0x3cc07558	0.023493454
63	0xbcb2099f	-0.021733103
64	0xbb8ccfdf	-0.004297241
65	0xbcad7c04	-0.0211773
66	0xbba338ad	-0.0049811215
67	0xbbe0d260	-0.006861016
68	0xbc3d9fe3	-0.0115737645
69	0xba14b1c2	-0.000567224
70	0x3c750708	0.01495529
71	0x3cedb139	0.02901517
72	0x3cd6055c	0.026125602
73	0xbcd77f88	-0.026305929
74	0xbb882767	-0.0041550878
75	0xbce8eb36	-0.02843247
76	0x3c8bbc8e	0.017057683
77	0x3cc10eb4	0.023566581
78	0x3c1bb118	0.009502672
79	0x3c4f01d2	0.012634711
80	0x3d0889b5	0.033334453
81	0xbbbdee08	-0.005796198
82	0xbd03c691	-0.03217179
83	0xbc9193ca	-0.017770667
84	0xbc2e5e5c	-0.010642614
85	0x3c62b726	0.013837611
86	0xbb35ed43	-0.0027759827
87	0x3cc5ebf4	0.024160363
88	0x3c8840b8	0.016632423
89	0xbc4c5de9	-0.012473562
90	0xbc5b7a76	-0.013395896
91	0xbc8a4059	-0.016876386
92	0xbd18196e	-0.037133627
93	0xbc83f0ca	-0.016106028
94	0xbca8e36a	-0.020616252
95	0xbc3059ec	-0.010763627
96	0xbc4da12e	-0.012550635
97	0xbc96d290	-0.01841095
98	0xbcaed45d	-0.021341497
99	0x3a98cca7	0.0011657671
100	0x3bdac874	0.006676728
101	0x3c019389	0.00790871
102	0x3c6dd9ed	0.01451729
103	0xbb22f215	-0.002486353
104	0x3b881226	0.004152554
105	0xbbdcdd41	-0.0067402427
106	0x3d0366c4	0.032080427
107	0x380185f3	3.0880747e-05
108	0x3cd0f12c	0.025505625
109	0xbca8bb41	-0.020597102
110	0xbcdea8c8	-0.02718009
111	0x3b98c0ad	0.0046616406
112	0xbd026f07	-0.031844165
113	0x3ca977ce	0.02068701
114	0x3ca6ab42	0.020345334
115	0x3cef4795	0.029208938
116	0x3d04550e	0.032307677
117	0x3c3e2612	0.011605756
118	0x3c619d83	0.013770464
119	0xbba8670f	-0.0051392387
120	0x3d054b8f	0.03254276
121	0x3c7a6bdc	0.015284505
122	0xbc071b46	-0.008246249
123	0xbd0460b3	-0.032318782
124	0x3b965ddd	0.004588826
125	0x3b8e364b	0.0043399683
126	0x3ce45ba0	0.027875721
127	0x3cafd391	0.021463187
128	0x3d019aad	0.03164165
129	0x3b89023c	0.0041811746
130	0x3c41e9b3	0.011835503
131	0xbcd4a91a	-0.02595954
132	0x3be445a4	0.0069663096
133	0x3c32c164	0.010910366
134	0xbc91d477	-0.017801506
135	0xbc82de06	-0.01597501
136	0x3c9a88d6	0.018864077
137	0xbc865c43	-0.016401416
138	0xbc1c8505	-0.009553199
139	0x3ce892e2	0.028390352
140	0x3cf54250	0.029938847
141	0xbccfd4c1	-0.025370004
142	0xbce47ff9	-0.027893053
143	0x3cd2cc59	0.025732206
144	0xbc033523	-0.008008274
145	0x3ba396c5	0.0049923384
146	0xbcabc1ee	-0.020966496
147	0xbc5ad6d3	-0.013356882
148	0x3cea98cf	0.028637318
149	0xbcadd0dd	-0.021217758
150	0x3c68fc65	0.014220332
151	0x3b3dfb3b	0.0028988856
152	0x3c4b8b0f	0.012423291
153	0x3b3c656f	0.0028746983
154	0xbbd4f964	-0.0064994562
155	0x3c638c95	0.013888498
156	0x3c37b8d7	0.011213503
157	0xbad9b1b9	-0.0016608752
158	0x3cce6ab3	0.025197363
159	0x3d055ebb	0.032561045
160	0x3ca11dbb	0.019667497
161	0xbc0b81b8	-0.008514814
162	0xbcc5066f	-0.02405092
163	0xbcb803ee	-0.022462811
164	0xbc8424cf	-0.016130833
165	0xbac13e19	-0.0014743238
166	0x3ca1bed4	0.019744314
167	0x3c3b9ecb	0.011451433
168	0x3d089933	0.033349227
169	0xbd055308	-0.032549888
170	0xbc95e610	-0.018298179
171	0x3d0b4934	0.03400536
172	0xbcc00346	-0.02343906
173	0x3cc7b79e	0.024379548
174	0x3b4175f9	0.002951978
175	0xbb6067fc	-0.0034241667
176	0x3cd07f3d	0.025451297
177	0x3ce199f9	0.02753924
178	0xbc66b0a6	-0.014080202
179	0xbacbb902	-0.0015542808
180	0x3d0955f6	0.033529244
181	0x3cf3b94f	0.029751448
182	0x3c69cb93	0.014269727
183	0xbcad5fe4	-0.021163888
184	0xbcc0d7cf	-0.023540406
185	0x3cd2a604	0.025713928
186	0x3ca7559a	0.02042656
187	0xbb8b7d5f	-0.0042568888
188	0x3d0be17e	0.034150593
189	0x3ccbbd6a	0.024870593
190	0xbbf03436	-0.007330443
191	0x3c80f7ae	0.015743103
192	0x3d0ca736	0.034339152
193	0x3ca915ea	0.020640332
194	0xbc8ab156	-0.016930263
195	0xbd06ef28	-0.03294292
196	0x3c36115d	0.011112538
197	0x3c5a50b3	0.013324904
198	0xbd0def35	-0.034651954
199	0x3bb4e5c6	0.005520555
200	0xbcb331b5	-0.021874288
201	0x3c66f4fa	0.014096493
202	0xbc8e45a6	-0.017367195
203	0xbcdd4314	-0.027009524
204	0x3d0adff9	0.033905003
205	0x3caca101	0.021072866
206	0xbc6ba3bc	-0.014382299
207	0xbcd1c274	-0.025605418
208	0x3cc302b2	0.023804996
209	0xbcb5a76b	-0.022174558
210	0xbc2cf781	-0.010557056
211	0xbc81cab7	-0.015843732
212	0x3c2afabd	0.010435757
213	0xbb1a5f2d	-0.0023555264
214	0x3c55b84c	0.013044428
215	0xbca2bfa7	-0.019866778
216	0x3cd5192c	0.02601298
217	0x3b82c1f8	0.003990408
218	0xbcc8d298	-0.024514481
219	0xbcd45d17	-0.025923295
220	0x3caf64a7	0.0214103
221	0xbc7b84ab	-0.015351455
222	0x3c209913	0.009802121
223	0x3a54e535	0.0008121313
224	0xbc874759	-0.016513513
225	0x3d0e2c9f	0.034710523
226	0xbc4c4a70	-0.012468919
227	0x3c7818b6	0.01514261
228	0x3cb9056d	0.022585595
229	0x3c444c64	0.011981104
230	0x3d0b0d5a	0.03394828
231	0xbcc1ed02	-0.023672584
232	0x3b845c7e	0.0040393462
233	0xb9f9810b	-0.00047589125
234	0x3c8faa57	0.017537279
235	0xbc6fd83b	-0.014638956
236	0xbca6e891	-0.020374568
237	0xbcdaa403	-0.026689535
238	0x3ccb840f	0.024843244
239	0x3c28ea15	0.010309716
240	0xbd051cc9	-0.032498155
241	0xbada4372	-0.001665218
242	0xbcea0e54	-0.028571285
243	0xbceb2dee	-0.028708424
244	0x3cb79584	0.022410162
245	0xbc8d7ae9	-0.017270522
246	0x3caf38c3	0.02138937
247	0x3d080ae0	0.033213496
248	0x3bb84229	0.0056231213
249	0x3c81ad6e	0.015829768
250	0xbcfdabef	-0.030965773
251	0xbc7899dd	-0.015173403
252	0xbb0511c2	-0.0020304774
253	0x3bf4cd53	0.0074707656
254	0x3c68cf1a	0.014209533
255	0x3c9b71b8	0.018975124
