SRCNN/LargeTrial/Checkpoints and results/x8/outputs_x8/x8/best.pth (torch, 231039 bytes, 5 tensors)

conv1.weight f4 [64, 1, 9, 9]
-0.042468466 0.00641484 -0.052238278 0.045166716 -0.09121717 0.08478145 -0.077610396 -0.08541309
-0.06769867 0.05301828 -0.038297772 0.04466513 -0.090804465 -0.063653685 -0.037139297 -0.018351234
-0.08150064 0.0755621 -0.023458418 0.038550932 0.08186774 0.024477769 0.034484636 0.11126446
-0.04623342 0.038836706 -0.04626179 0.08210857 0.091630235 -0.099074334 0.09876509 0.057355523
0.052671425 0.049905717 0.09634275 -0.011150826 -0.09115765 -0.028882813 -0.07475587 0.011424628
-0.016250804 -0.05512016 -0.0056801653 0.10953921 -0.004912542 0.0064016213 -0.014299049 0.020976175
0.10304859 0.07241369 0.043909673 0.028591132 0.030542357 0.046900477 -0.011538802 -0.10037231
-0.065413065 0.09864079 0.010826175 -0.08581865 0.02171648 0.095959514 -0.101145715 -0.0721912
-0.041644834 0.0073867342 -0.022551836 -0.008515528 -0.10462812 0.055737894 0.101233944 0.07138906
-0.07630216 -0.087298095 0.04863075 0.005338106 0.048661668 -0.10547637 -0.003516764 0.08149337
0.054497376 0.003757423 0.022381548 -0.00982655 -0.060728926 -0.04156598 -0.067422315 0.09213173
0.06092703 0.038060445 -0.084903486 0.08698164 0.036202848 0.07792597 -0.042498548 0.024477502
0.10893588 0.07507101 0.088889964 -0.02443389 0.08441703 -0.08713226 0.009229633 -0.06265735
-0.026192855 -0.028893953 0.007840693 0.100145765 0.052620534 -0.0024296788 0.0769113 -0.059233904
0.055186175 -0.012344861 -0.021132015 0.011059569 -0.08686699 0.014967349 0.039690226 0.09729418
-0.032758497 0.041988958 0.11333674 -0.045143843 0.10795195 -0.052487593 0.050836686 0.045527734
0.03285222 0.08903152 -0.043565504 0.030844543 0.0024794056 -0.08199254 -0.024936995 -0.07318313
0.05013311 0.0106951725 0.0106761055 -0.033887476 0.000672885 -0.03426207 0.032027256 0.10863594
0.018512996 -0.047692116 -0.066730425 0.00857572 -0.08245768 -0.08327269 -0.07193849 -0.03749979
0.0092549035 0.07649702 0.04285481 0.08447261 -0.07163404 0.007184791 -0.100853994 0.061615147
0.020813918 0.10589338 -0.07902358 0.08889136 0.09359098 0.089623325 0.01563613 0.10081908
0.073991925 0.08268585 -0.0074381977 -0.085266456 -0.0015925765 0.020629412 -0.07588651 -0.063938744
-0.10672844 -0.039155297 0.09658428 0.018790875 -0.0067866775 0.004257847 0.06908736 -0.09831367
-0.08592768 -0.037141114 -0.06414196 0.057109438 0.07831322 -0.10780287 -0.09448778 -0.108392015
0.041722704 0.08923825 -0.08633893 -0.051634062 0.03516331 -0.07274442 0.094386615 0.02571235
-0.031125963 0.0070208386 0.034449223 -0.039482076 -0.0862824 0.0005505817 0.0018271473 0.0022405784
-0.016409494 0.07115346 -0.031201597 -0.010950836 0.045495123 -0.07012558 0.029555753 -0.024764352
0.053297058 -0.06027382 0.004106482 0.010869927 -0.08939961 -0.08079358 0.042612594 -0.032339614
0.06598852 -0.10976251 -0.0549254 -0.09151799 0.044385713 -0.0032212602 -0.020724602 -0.018485704
-0.086849876 0.03151055 0.0027695366 -0.076679215 0.041809745 -0.002233227 -0.10746084 0.059768915
0.0594319 -0.020934463 -0.07671535 0.0059828404 0.08539805 0.10324868 -0.082329616 -0.048712365
0.08795519 0.05571557 0.07016684 -0.053928103 0.09727491 -0.08971597 -0.0037182744 0.0039409474
00000000: 6af3 2dbd 9433 d23b cef7 55bd bc00 393d
00000010: 11d0 babd e6a1 ad3d 33f2 9ebd 0fed aebd
00000020: 9aa5 8abd b229 593d 20de 1cbd c9f2 363d
00000030: b1f7 b9bd dd5c 82bd 601f 18bd 5455 96bc
00000040: cfe9 a6bd 4dc0 9a3d de2b c0bc 95e7 1d3d
00000050: 46aa a73d 9a85 c83c c33f 0d3d 9fde e33d
00000060: 415f 3dbd 3d13 1f3d 017d 3dbd 8a28 a83d
00000070: a2a8 bb3d 7ce7 cabd 5a45 ca3d a0ed 6a3d
00000080: febd 573d f069 4c3d 594f c53d f4b1 36bc
00000090: ddb0 babd a69b ecbc 9b19 99bd 5d2e 3b3c
000000a0: 6820 85bc adc5 61bd ae20 babb 1856 e03d
000000b0: 64f9 a0bb b1c4 d13b 8f46 6abc 3ad6 ab3c
000000c0: 240b d33d a14d 943d a1da 333d f337 ea3c
000000d0: f733 fa3c b71a 403d 3e0d 3dbc ff8f cdbd
000000e0: 49f7 85bd 2f04 ca3d 4560 313c b0c1 afbd
000000f0: c2e6 b13c 6c86 c43d 7c25 cfbd fbd8 93bd
00000100: c693 2abd 6b0c f23b a1be b8bc b784 0bbc
00000110: 4547 d6bd 6b4d 643d be53 cf3d 6d34 923d
00000120: 4f44 9cbd 58c9 b2bd 0a31 473d 47eb ae3b
00000130: 7551 473d ff03 d8bd 8279 66bb ffe5 a63d
00000140: a438 5f3d 193f 763b 8259 b73c 8aff 20bc
00000150: e5be 78bd 1741 2abd b614 8abd 8faf bc3d
00000160: 9f8e 793d 45e5 1b3d e1e1 adbd 6e23 b23d
00000170: 7049 143d a797 9f3d f512 2ebd 0b85 c83c
00000180: c619 df3d d4be 993d f10b b63d 9529 c8bc
00000190: d6e2 ac3d 6672 b2bd e337 173c 7f52 80bd
000001a0: 6692 d6bc 03b3 ecbc 4076 003c 3919 cd3d
000001b0: a188 573d 3f3b 1fbb ac83 9d3d 409f 72bd
000001c0: e60a 623d 1a42 4abc 0c1d adbc 3233 353c
000001d0: 52e7 b1bd 9d39 753c 3892 223d 2c42 c73d
000001e0: c62d 06bd 9dfc 2b3d 181d e83d c0e8 38bd
000001f0: e915 dd3d 3bfd 56bd 213a 503d 4a7b 3a3d
00000200: 0d90 063d 2856 b63d be71 32bd b2ad fc3c
00000210: 867d 223b b4eb a7bd ab48 ccbc 09e1 95bd
00000220: 6058 4d3d ce3a 2f3c d5ea 2e3c 98cd 0abd
00000230: 8c64 303a 6256 0cbd 032f 033d 857c de3d
00000240: 91a8 973c cf58 43bd f6a9 88bd 2d81 0c3c
00000250: 92df a8bd df8a aabd 7d54 93bd 6199 19bd
00000260: e1a1 173c 78aa 9c3d 8688 2f3d faff ac3d
00000270: deb4 92bd 656e eb3b 8a8c cebd 2a60 7c3d
00000280: f381 aa3c a1de d83d 1dd7 a1bd ac0c b63d
00000290: a1ac bf3d 6f8c b73d 5717 803c 3c7a ce3d
000002a0: 1489 973d 3357 a93d 20bc f3bb 2ea0 aebd
000002b0: 00be d0ba 03ff a83c 636a 9bbd 51f2 82bd
000002c0: 7194 dabd 4e61 20bd fbcd c53d 52ef 993c
000002d0: c762 debb 6985 8b3b ac7d 8d3d ad58 c9bd
000002e0: dafa afbd 4821 18bd dc5c 83bd 96eb 693d
000002f0: ae62 a03d c0c7 dcbd cf82 c1bd a2fc ddbd
00000300: 6de5 2a3d 8bc2 b63d 77d2 b0bd 3d7e 53bd
00000310: 6707 103d 07fb 94bd c54d c13d b5a2 d23c
00000320: e0fb febc 100f e63b a11a 0d3d f5b7 21bd
00000330: d4b4 b0bd ea54 103a e47c ef3a abd6 123b
00000340: 346d 86bc e8b8 913d 7e9a ffbc 236b 33bc
00000350: 1859 3a3d 009e 8fbd e81e f23c 9cde cabc
00000360: 044e 5a3d aee1 76bd ab8f 863b c717 323c
00000370: 2517 b7bd 1b77 a5bd 8b8a 2e3d 8b76 04bd
00000380: fd24 873d 2bcb e0bd 75f9 60bd c96d bbbd
00000390: cbcd 353d c71b 53bb a4c6 a9bc 556f 97bc
000003a0: 59de b1bd 3511 013d 1d81 353b fe09 9dbd
000003b0: b240 2b3d 555b 12bb 6e14 dcbd 40d0 743d
000003c0: dd6e 733d c07e abbc f01c 9dbd b40b c43b
000003d0: 2ce5 ae3d 0b74 d33d 6e9c a8bd 9e86 47bd
000003e0: da21 b43d 0236 643d a2b3 8f3d b7e3 5cbd
000003f0: 1138 c73d 02bd b7bd 4bae 73bb 1023 813b

conv1.bias f4 [64]
-0.023411691 -0.07364535 -0.005387258 -0.06765533 0.039496306 0.020328794 0.064170085 0.051808346
0.13841923 -0.053963732 0.0064945957 0.008618207 -0.098065205 0.091451384 0.07481711 0.10497411
-0.03703985 -0.058638487 0.057118446 0.05903431 0.015544329 -0.06782442 -0.09199476 0.07369357
-0.06016307 0.08052756 -0.022407329 -0.028304065 0.032331873 0.032908496 0.09694874 -0.025196148
0.049243525 0.051729303 -0.0044553424 -0.10223528 -0.018831804 0.09195348 -0.09422847 0.027032292
-0.08370361 -0.05527361 0.09677814 -0.007868905 0.040788103 0.02659269 0.061945572 -0.11109833
-0.07026497 -0.019838257 -0.048766773 -0.07087432 0.048830736 -0.008193743 0.01097454 -0.04039059
0.08682026 -0.04934265 -0.0036203202 0.06581861 0.10351405 -0.09986309 -0.03879513 -0.08812024
00000000: e0c9 bfbc 60d3 96bd 9887 b0bb e18e 8abd
00000010: e1c6 213d 9288 a63c 9b6b 833d fd34 543d
00000020: c5bd 0d3e 1309 5dbd 9ed0 d43b 6133 0d3c
00000030: 69d6 c8bd dd4a bb3d b739 993d abfc d63d
00000040: 19b7 17bd e92e 70bd 08f5 693d f6cd 713d
00000050: a4ad 7e3c 88e7 8abd c067 bcbd a8ec 963d
00000060: 8d6d 76bd a2eb a43d 938f b7bc eddd e7bc
00000070: 6d6e 043d 0fcb 063d 108d c63d 2768 cebc
00000080: 94b3 493d 1be2 533d 1ffe 91bb bb60 d1bd
00000090: 2845 9abc 1b52 bc3d dbfa c0bd d372 dd3c
000000a0: cc6c abbd 9566 62bd 9e33 c63d 94ec 00bc
000000b0: 6d11 273d ead8 d93c a4ba 7d3d 8587 e3bd
000000c0: 15e7 8fbd d783 a2bc abbf 47bd 8e26 91bd
000000d0: bd02 483d 0d3f 06bc 8fce 333c 9a70 25bd
000000e0: d2ce b13d 851b 4abd e542 6dbb e8cb 863d
000000f0: 2dff d33d 0585 ccbd a4e7 1ebd 6278 b4bd

conv2.weight f4 [32, 64, 5, 5]
0.0126715815 0.018262753 -0.005205764 -0.01621288 -0.0036532548 -0.00043419076 -0.01011364 -0.020120656
-0.016701836 -0.003374994 0.02336611 -0.008825742 -0.0012201372 -0.014015053 0.013347712 0.005461231
0.02356104 0.010024021 0.00025137467 0.023834376 0.0213717 0.029407851 -0.0116282 0.016019806
-0.014427014 -0.014460372 0.019713322 0.012332483 -0.0130396895 -0.014886821 -0.011330611 0.02104697
0.010404645 0.0032739493 -0.01476858 0.009617862 -0.0038961833 0.016403427 0.00748854 0.012983751
-0.006910151 0.0010889258 -0.012385988 0.0071124774 -0.00045371507 -0.019631326 0.015461196 0.0116020525
0.016256172 0.012533886 0.0024205416 0.017778447 -0.02167627 0.006897813 0.019907838 -0.0042426055
0.019332426 0.010366756 0.02115775 0.021443535 0.011399317 0.00224012 -0.02122877 -0.009129189
-0.022237167 -0.00400651 0.015171864 0.013536895 0.0018513681 -0.024132071 0.013322672 0.009314883
-0.012696426 -0.022935202 -0.013880767 0.009825741 -0.01171371 -0.015606382 -0.01820712 -0.013189432
-0.0028765302 0.019726751 -0.014170993 -0.020910062 0.021719178 0.014395948 0.008949103 -0.01568178
0.018388502 0.011019216 0.0048451414 0.019914238 0.008836097 0.01690063 -0.0060596955 0.016700137
-0.010625582 0.0075992416 -0.01416754 -0.021690793 -0.019379575 -0.016728805 0.015176119 0.025692936
0.016888505 0.0013798006 0.0016760381 0.0053015994 0.02567592 0.015077079 -0.0130008105 -0.01191388
0.022084001 0.015143522 -0.0227178 -0.01868397 0.014758566 -0.010308722 0.020403242 0.017737476
-0.019060781 0.0064119915 -0.0037009006 -0.023899723 0.00800323 -0.06375015 -0.054599375 -0.120068535
-0.11242074 -0.12655856 0.003631672 0.038835615 -0.0066885096 0.010897584 -0.014409103 0.00044026188
0.0130044725 0.017160894 0.032211587 0.012035797 0.045990694 0.04338389 0.013415098 0.030003654
0.047851942 -0.012734925 0.0080259 0.0154592935 -0.010400309 -0.026084254 -0.0121543575 0.0010494612
-0.0138169825 0.027269948 -0.018548584 0.023382997 0.018089851 -0.02016063 -0.013469933 0.024738327
-0.0020583537 -0.01643406 0.0017949688 -0.005180697 0.003798877 0.010854574 -0.020131234 -0.011829953
4.4186138e-05 0.02395049 -0.018107558 -0.012321787 0.014924179 0.024333894 0.0035674411 0.0024291761
0.012526065 -0.004289298 0.015283536 0.024324667 0.020901816 -0.022072896 0.021683434 0.026130632
0.012232744 -0.005937702 -0.0014637887 -0.014768549 -0.0019027508 0.017259376 -0.0056711766 -0.0030656587
-0.0038283719 0.00073040155 0.0034993922 -0.002965081 -0.023810836 -0.0074873683 -0.011762179 -0.008546386
0.01280254 0.03397781 0.044160184 0.026429918 0.05526829 0.0505279 0.03191832 0.02590242
0.014999307 0.027890168 -0.0010474642 -0.0024651797 0.004096326 0.017802402 -0.0008346837 0.047838885
0.014637406 0.007292984 0.00185898 -0.0040044216 0.0027963 0.039390896 0.024192145 -0.0056669
0.03274909 -0.006228972 -0.0010247679 -0.024547534 -0.037127957 -0.036888663 0.020022074 0.007082104
0.01788584 0.012134323 -0.022696696 -0.013436385 -0.0104527 -0.017424367 -0.024576299 -0.043910548
-0.029558 -0.012208547 -0.015373428 -0.0327961 -0.021850193 0.015039488 0.0008608241 -0.011616931
-0.0033187405 0.0055120517 0.000638875 -0.0038612334 -0.009858589 0.009832756 0.018635882 -0.022760801
00000000: 779c 4f3c c59b 953c 1d95 aabb e0d0 84bc
00000010: 726b 6fbb 19a4 e3b9 aeb3 25bc 13d4 a4bc
00000020: 4ad2 88bc 012f 5dbb 496a bf3c d899 10bc
00000030: 03ed 9fba 659f 65bc 5db0 5a3c 20f4 b23b
00000040: 1503 c13c cb3b 243c f0ca 8339 4f40 c33c
00000050: b413 af3c bce8 f03c 3584 3ebc f83b 833c
00000060: 485f 6cbc 32eb 6cbc d57d a13c 2f0e 4a3c
00000070: 6ca4 55bc dae7 73bc 07a4 39bc b26a ac3c
00000080: 3f78 2a3c c18f 563b eaf7 71bc 3d94 1d3c
00000090: 1c57 7fbb 7b60 863c 6d62 f53b ccb9 543c
000000a0: 8c6e e2bb 49ba 8e3a 99ee 4abc c90f e93b
000000b0: 9be0 edb9 e0d1 a0bc f550 7d3c 8916 3e3c
000000c0: aa2b 853c ee5a 4d3c f3a1 1e3b 1ba4 913c
000000d0: 6f92 b1bc 0d07 e23b c315 a33c 8e05 8bbb
000000e0: 095f 9e3c 53d9 293c 0553 ad3c 5aaa af3c
000000f0: 33c4 3a3c face 123b f5e7 adbc 9892 15bc
00000100: b82a b6bc 0b49 83bb 6993 783c dac9 5d3c
00000110: 9ba9 f23a 9fb0 c5bc 5647 5a3c 739d 183c
00000120: ac04 50bc 9be2 bbbc 286c 63bc 25fc 203c
00000130: dcea 3fbc e9b1 7fbc 1927 95bc 7d18 58bc
00000140: 2b84 3cbb ff99 a13c 742d 68bc 944b abbc
00000150: 6bec b13c fbdc 6b3c 429f 123c 1477 80bc
00000160: 7ca3 963c f189 343c fec3 9e3b 2f23 a33c
00000170: 47c5 103c 3173 8a3c 6990 c6bb bace 883c
00000180: ec16 2ebc 0f03 f93b f81e 68bc e4b0 b1bc
00000190: eac1 9ebc d90a 89bc 42a5 783c fe79 d23c
000001a0: c359 8a3c 6dda b43a 82ae db3a 0ab9 ad3b
000001b0: 4f56 d23c da05 773c 5a01 55bc 6f32 43bc
000001c0: 82e9 b43c 891c 783c ae1a babc 200f 99bc
000001d0: eacd 713c eae5 28bc b324 a73c 2f4e 913c
000001e0: 5b25 9cbc af1b d23b cf8a 72bb 5ac9 c3bc
000001f0: fb1f 033c 708f 82bd 98a3 5fbd 7ee6 f5bd
00000200: d83c e6bd 9198 01be 5801 6e3b 1812 1f3d
00000210: 492b dbbb c88b 323c 2914 6cbc f3d2 e639
00000220: b610 553c 0195 8c3c 4cf0 033d cb31 453c
00000230: bd60 3c3d 4eb3 313d 00cb 5b3c 39ca f53c
00000240: 6600 443d 26a6 50bc 117f 033c fa48 7d3c
00000250: 0f66 2abc a5ae d5bc 1223 47bc 138e 893a
00000260: a060 62bc 3a65 df3c 33f3 97bc b38d bf3c
00000270: 2b31 943c e827 a5bc feb0 5cbc 08a8 ca3c
00000280: 72e5 06bb b9a0 86bc 2945 eb3a d6c2 a9bb
00000290: 94f6 783b 62d7 313c 42ea a4bc 6bd2 41bc
000002a0: 8154 3938 d133 c43c 4d56 94bc 52e1 49bc
000002b0: 8b84 743c e057 c73c bbcb 693b d032 1f3b
000002c0: 203a 4d3c 3d8d 8cbb cc67 7a3c 8644 c73c
000002d0: 493a ab3c 38d2 b4bc 75a1 b13c e80f d63c
000002e0: d96b 483c 0e91 c2bb 99dc bfba c9f7 71bc
000002f0: b965 f9ba 8963 8d3c 47d5 b9bb 38e9 48bb
00000300: 6ce5 7abb 6b78 3f3a 0f56 653b ce51 42bb
00000310: f10e c3bc 9958 f5bb 28b6 40bc 2406 0cbc
00000320: bfc1 513c 512c 0b3d 4fe1 343d 8e83 d83c
00000330: 0161 623d 58f6 4e3d c9bc 023d 5031 d43c
00000340: a7bf 753c ec79 e43c 114b 89ba da8e 21bb
00000350: 793a 863b 58d6 913c adce 5aba b5f2 433d
00000360: bbd1 6f3c fcf9 ee3b 05a9 f33a 8637 83bb
00000370: 2142 373b 5958 213d 9b2e c63c 67b1 b9bb
00000380: e923 063d 681c ccbb 8151 86ba e917 c9bc
00000390: 7c13 18bd 9118 17bd 5505 a43c ff10 e83b
000003a0: 5385 923c 0acf 463c 6cee b9bc 4924 5cbc
000003b0: cd41 2bbc 8cbd 8ebc 3c54 c9bc 8cdb 33bd
000003c0: 9e23 f2bc 5c06 48bc d5e0 7bbc 3455 06bd
000003d0: 2dff b2bc 2f68 763c eda8 613a f154 3ebc
000003e0: 3a7f 59bb 719e b43b 2d7a 273a bf0c 7dbb
000003f0: eb85 21bc 9119 213c 47aa 983c dc74 babc

conv2.bias f4 [32]
-0.009009592 -0.021741474 -0.0032901953 0.014403916 0.025674125 0.0212511 -0.010024245 0.0037184928
0.008189525 -0.011693969 -0.0039354633 0.009781379 0.024909666 0.012065133 0.02466631 -0.0041691344
-0.015695237 -0.01778909 0.007174092 0.021536445 0.012521175 -0.003178426 -0.005268209 0.0026410695
0.008744311 -0.01238887 0.014390568 0.02334177 0.008440393 -0.014241266 0.019999204 -0.0023448255
00000000: f89c 13bc 2d1b b2bc 51a0 57bb 67fe 6b3c
00000010: 8b52 d23c c916 ae3c bb3c 24bc f5b1 733b
00000020: 5c2d 063c 1098 3fbc 0ff5 80bb 1442 203c
00000030: 5b0f cc3c d6ac 453c 0011 ca3c 3c9d 88bb
00000040: 4c93 80bc 6dba 91bc a514 eb3b 336d b03c
00000050: 9d25 4d3c 244d 50bb f1a0 acbb cb15 2d3b
00000060: 4c44 0f3c b0fa 4abc 6bc6 6b3c 3d37 bf3c
00000070: 9349 0a3c 3354 69bc 5fd5 a33c a5ab 19bb

conv3.weight f4 [1, 32, 5, 5]
0.019347278 0.018416861 -0.0015484265 0.024731444 0.0305889 -0.029036177 0.0017607339 -0.033663332
0.004460381 0.010508506 -0.001989005 0.028372234 0.012765179 -0.02929952 -0.0026989952 -0.01522881
-0.028036337 0.00046524545 -0.031329133 0.023709897 0.0048032016 0.013053834 0.020124394 0.028090708
-0.01708899 0.0024830904 -0.03299578 0.008177646 0.02659576 -0.021957438 0.020773252 -0.01623472
0.010082825 -0.015328458 0.0069944984 -0.033190764 0.026531305 -0.008104708 0.032850895 -0.0125082685
0.01570578 -0.016542539 -0.014479275 -0.008524657 0.017179495 0.014436265 0.020812286 -0.0053382367
0.0049244366 0.022178369 -0.01388304 -0.011684209 0.026845926 -0.029889405 -0.017164828 -0.019659046
-0.0072427024 -0.025715679 0.008169292 -0.024746343 -0.018207224 -0.034679845 0.024046864 -0.024187028
-0.006504098 -0.025110448 -0.009384165 -0.009448053 -0.01543568 -0.004772351 0.01497117 0.0291107
0.02657588 -0.027145429 -0.0047409707 -0.028493976 0.017418364 0.024028383 0.009576857 0.01194527
0.032754824 -0.0057788566 -0.031983085 -0.017962892 -0.011610702 0.0127505 -0.0029748569 0.024389537
0.016683636 -0.0130706215 -0.014329909 -0.016762428 -0.03643047 -0.015350421 -0.020321906 -0.013175506
-0.013932134 -0.019076718 -0.02172165 0.00048754294 0.006686798 0.007905185 0.014509101 -0.002496541
0.004140714 -0.006732018 0.03207912 3.3332297e-05 0.025512785 -0.020585278 -0.027170496 0.004667953
-0.031829473 0.020712059 0.020380972 0.029230518 0.032329287 0.011639453 0.013820067 -0.0050729364
0.03256098 0.015307977 -0.0082099 -0.032265328 0.004659021 0.0043739644 0.02790097 0.021492705
0.031689323 0.004238094 0.01188617 -0.025916338 0.0070135347 0.010970557 -0.017737132 -0.015940921
0.01889459 -0.01636824 -0.009510776 0.028433707 0.02996711 -0.025342626 -0.027864384 0.025767783
-0.00797559 0.0048919558 -0.021067906 -0.013461351 0.028535653 -0.021329226 0.013786439 0.0024378458
0.012003925 0.0025277752 -0.006645165 0.013472541 0.010734375 -0.002105598 0.024831267 0.032424267
0.019527318 -0.008766244 -0.024293844 -0.022661436 -0.016074488 -0.0017526775 0.019311149 0.010985052
0.032826412 -0.03277871 -0.018423833 0.033694785 -0.023851208 0.023790667 0.0026778462 -0.0034239118
0.02545685 0.027557574 -0.014057058 -0.0015312941 0.033535734 0.029764462 0.0142961545 -0.021130767
-0.023506142 0.025729774 0.020446701 -0.004222983 0.034193013 0.024915967 -0.0072993315 0.015777117
0.03438213 0.020691164 -0.016875884 -0.032939658 0.01112034 0.013340351 -0.034632657 0.0055427174
-0.021874294 0.01409649 -0.017367197 -0.027009519 0.03390499 0.021072866 -0.014382306 -0.02560542
0.023805 -0.022174558 -0.01055706 -0.015843734 0.010435757 -0.0023555232 0.01304443 -0.019866781
0.026012976 0.0039904104 -0.024514472 -0.02592329 0.0214103 -0.015351456 0.009802118 0.00081213744
-0.016513506 0.03472394 -0.012449848 0.015162661 0.022613863 0.012011367 0.033967137 -0.023652779
0.004054053 -0.0004608205 0.017548889 -0.014584285 -0.020327354 -0.026653806 0.024870398 0.010327611
-0.03244312 -0.0016195417 -0.02853955 -0.028688762 0.022416594 -0.01720158 0.021455504 0.033271316
0.005670767 0.01586711 -0.0323544 -0.016507905 -0.0033338342 0.0061954977 0.012957341 0.017968222
00000000: 2f7e 9e3c f5de 963c 92f4 caba 9999 ca3c
00000010: 9395 fa3c 47dd edbc 6dc8 e63a 90e2 09bd
00000020: 6328 923b de2b 2c3c f759 02bb e36c e83c
00000030: 0b25 513c 8c05 f0bc a0e1 30bb 4282 79bc
00000040: 76ac e5bc 30ec f339 fa52 00bd 423b c23c
00000050: 2d64 9d3b c0df 553c eadb a43c 7c1e e63c
00000060: 36fe 8bbc 58bb 223b 9526 07bd 89fb 053c
00000070: 5adf d93c 16e0 b3bc ab2c aa3c adfe 84bc
00000080: 6f32 253c 3624 7bbc 1b32 e53b 0af3 07bd
00000090: 2e58 d93c 9cc9 04bc a98e 063d 7bef 4cbc
000000a0: 68a9 803c 3884 87bc 7b3a 6dbc 01ab 0bbc
000000b0: 03bc 8c3c 1686 6c3c 877e aa3c 60ec aebb
000000c0: 2b5d a13b 69af b53c b175 63bc 206f 3fbc
000000d0: fdeb db3c a0da f4bc 419d 8cbc 020c a1bc
000000e0: 3154 edbb b0a9 d2bc 7ed8 053c d8b8 cabc
000000f0: 5127 95bc 740c 0ebd eefd c43c e023 c6bc
00000100: 5420 d5bb 6db4 cdbc 0ac0 19bc 02cc 1abc
00000110: efe5 7cbc 6261 9cbb a349 753c 9079 ee3c
00000120: a9b5 d93c 1760 debc 255a 9bbb 336c e9bc
00000130: f5b0 8e3c 2cd7 c43c 40e8 1c3c 18b6 433c
00000140: ec29 063d 905c bdbb b200 03bd ea26 93bc
00000150: d03a 3ebc 79e7 503c d1f5 42bb 91cc c73c
00000160: 1fac 883c 2926 56bc ffc7 6abc 5c51 89bc
00000170: 1e38 15bd 5580 7bbc 207a a6bc 14de 57bc
00000180: 9b43 64bc c746 9cbc 9af1 b1bc e89c ff39
00000190: ed1c db3b c084 013c 95b7 6d3c 029d 23bb
000001a0: d4ae 873b 4398 dcbb 6565 033d 48ce 0b38
000001b0: 3000 d13c 75a2 a8bc a994 debc a1f5 983b
000001c0: 9f5f 02bd 56ac a93c fff5 a63c d774 ef3c
000001d0: b76b 043d 67b3 3e3c 906d 623c e03a a6bb
000001e0: aa5e 053d 4fce 7a3c d182 06bc a628 04bd
000001f0: b3aa 983b 7953 8f3b 9390 e43c 7811 b03c
00000200: aacc 013d b6df 8a3b 36be 423c 804e d4bc
00000210: cbd1 e53b dabd 333c 764d 91bc 8996 82bc
00000220: d4c8 9a3c b016 86bc 16d3 1bbc ceed e83c
00000230: 967d f53c 579b cfbc d943 e4bc f516 d33c
00000240: 0dac 02bc b34c a03b 9a96 acbc 008d 5cbc
00000250: 9ac3 e93c a1ba aebc 84e0 613c 44c4 1f3b
00000260: 1cac 443c 08a9 253b afbf d9bb efbb 5c3c
00000270: 3bdf 2f3c 13fe 09bb f16a cb3c 4fcf 043d
00000280: c1f7 9f3c 4ba0 0fbc e203 c7bc 7aa4 b9bc
00000290: a5ae 83bc 19ba e5ba 6a32 9e3c a6fa 333c
000002a0: fd74 063d f842 06bd 94ed 96bc 8b03 0a3d
000002b0: 9c63 c3bc a5e4 c23c ce7e 2f3b b563 60bb
000002c0: e28a d03c 6cc0 e13c 934f 66bc b4b5 c8ba
000002d0: c45c 093d 9ad4 f33c 6b3a 6a3c 6e1a adbc
000002e0: f48f c0bc 3fc7 d23c d77f a73c f360 8abb
000002f0: f90d 0c3d 921c cc3c 3b2f efbb 033f 813c
00000300: 47d4 0c3d 8480 a93c 4b3f 8abc bceb 06bd
00000310: 1632 363c 7d91 5a3c f9da 0dbd af9f b53b
00000320: b831 b3bc f7f4 663c a745 8ebc 1143 ddbc
00000330: f5df 0a3d 01a1 ac3c c3a3 6bbc 75c2 d1bc
00000340: b402 c33c 6ba7 b5bc 85f7 2cbc b8ca 81bc
00000350: bdfa 2a3c 1f5f 1abb 4eb8 553c a9bf a2bc
00000360: 2a19 d53c fdc1 823b 93d2 c8bc 145d d4bc
00000370: a764 af3c ac84 7bbc 1099 203c 9fe5 543a
00000380: 5547 87bc b13a 0e3d 73fa 4bbc cf6c 783c
00000390: b540 b93c 53cb 443c 2021 0b3d 79c3 c1bc
000003a0: ddd7 843b 489a f1b9 b0c2 8f3c edf2 6ebc
000003b0: 8d85 a6bc 1559 dabc 01bd cb3c 2435 293c
000003c0: 14e3 04bd cd46 d4ba c6cb e9bc b204 ebbc
000003d0: 01a3 b73c 54ea 8cbc 74c3 af3c 8147 083d
000003e0: d7d1 b93b befb 813c 0c86 04bd 963b 87bc
000003f0: 757c 5abb 9a03 cb3b 074b 543c 1832 933c
