SRCNN/checkpoints/x4/best.pth (torch, 231039 bytes, 5 tensors)

conv1.weight f4 [64, 1, 9, 9]
-0.04223713 0.006575799 -0.05226311 0.044891983 -0.09162385 0.08436469 -0.07788964 -0.08543478
-0.06729613 0.053113192 -0.038200058 0.044664044 -0.09100924 -0.06403212 -0.037654173 -0.018889984
-0.08193271 0.07550769 -0.02349475 0.038588177 0.081953995 0.024495466 0.03439768 0.1109951
-0.046685785 0.038332865 -0.04651472 0.081898846 0.09151352 -0.0990411 0.09886595 0.057467658
0.05261312 0.049584497 0.095802024 -0.01156889 -0.091623805 -0.02932078 -0.07505193 0.0112595195
-0.016315192 -0.055282995 -0.006087873 0.10885658 -0.005547071 0.0058461046 -0.01489498 0.02044178
0.10261431 0.07207806 0.043522302 0.028019903 0.029736757 0.046133764 -0.01208125 -0.10099617
-0.066092424 0.09795093 0.010160775 -0.0865232 0.020912342 0.09500167 -0.1020317 -0.07248139
-0.041992977 0.00692726 -0.02315091 -0.009207129 -0.10538883 0.054906026 0.10031525 0.07058579
-0.076115645 -0.08706315 0.048796438 0.005333872 0.04848569 -0.10577853 -0.003909353 0.08104497
0.05415309 0.0034922364 0.021133402 -0.011424552 -0.06212689 -0.04245567 -0.06731636 0.092713416
0.061243646 0.03862657 -0.085130855 0.08570606 0.03452125 0.07615908 -0.044234574 0.023407882
0.1084131 0.07467818 0.08898426 -0.022478893 0.08563104 -0.086282246 0.009760864 -0.06258699
-0.025977815 -0.028419973 0.0084677655 0.10113888 0.05597686 0.00086657284 0.08008956 -0.056179643
0.05760731 -0.01024545 -0.01933442 0.012913308 -0.085430086 0.013848566 0.0387067 0.09637619
-0.03357715 0.040751245 0.11148085 -0.047557652 0.10531544 -0.055743244 0.049909607 0.044689517
0.03206417 0.08863145 -0.044213053 0.029679503 0.00079960836 -0.08398197 -0.027634919 -0.07322652
0.050103154 0.0105506545 0.011095002 -0.033465873 0.00082559703 -0.034442667 0.03157329 0.10740384
0.017898275 -0.04840057 -0.067744404 0.008109927 -0.08266681 -0.08334777 -0.0719475 -0.03758334
0.008312766 0.078035116 0.044266373 0.08551296 -0.0699578 0.009273818 -0.09823209 0.064852126
0.024404243 0.10886321 -0.098938964 0.08569258 0.10191548 0.10616895 0.037666686 0.12079754
0.09025817 0.096083105 0.0053470833 -0.10313686 -0.002504042 0.031133873 -0.058112048 -0.041337203
-0.08654464 -0.022487478 0.111070424 0.033057686 -0.023629079 0.0044620386 0.07992078 -0.08205428
-0.06610119 -0.019778065 -0.04937681 0.07131274 0.09325679 -0.12264199 -0.09200853 -0.096288
0.057036415 0.10657792 -0.07141566 -0.038201828 0.049894594 -0.055986214 0.08204142 0.030933792
-0.017466266 0.021876814 0.050093606 -0.026126564 -0.07345913 0.01619251 0.020646647 -0.020724107
-0.019255828 0.07710455 -0.023033602 -0.00046504367 0.053033493 -0.061622813 0.043304816 -0.004571766
0.007716863 -0.06806347 0.00019419359 0.011645622 -0.07846278 -0.07366553 0.05089802 -0.015590757
0.09614919 -0.2894511 -0.08225433 -0.12759922 0.016453244 -0.009061296 -0.029686246 -0.0273028
-0.088480294 0.04355888 -0.17438704 -0.116505265 0.0022729724 -0.030006854 -0.11151491 0.053075787
0.052540503 -0.02269295 -0.06715574 0.0057969573 0.08516819 0.10300517 -0.082579136 -0.04889198
0.08792362 0.055765115 0.070202515 -0.053921707 0.09707043 -0.0900034 -0.0040408 0.0035797297
00000000: d700 2dbd cd79 d73b d811 56bd a8e0 373d
00000010: 49a5 bbbd 65c7 ac3d 9b84 9fbd 6ef8 aebd
00000020: 8ed2 89bd 388d 593d aa77 1cbd a5f1 363d
00000030: 0d63 babd 4623 83bd 433b 1abd 2bbf 9abc
00000040: 56cc a7bd c7a3 9a3d 1078 c0bc a30e 1e3d
00000050: 7fd7 a73d b7aa c83c 95e4 0c3d 6651 e33d
00000060: 9839 3fbd ec02 1d3d 3886 3ebd 95ba a73d
00000070: 716b bb3d 0fd6 cabd 3b7a ca3d 3563 6b3d
00000080: db80 573d 1d19 4b3d da33 c43d 718b 3dbc
00000090: 43a5 bbbd 2232 f0bc d4b4 99bd d979 383c
000000a0: 70a7 85bc 6c70 62bd c87c c7bb 33f0 de3d
000000b0: 34c4 b5bb ae90 bf3b 130a 74bc 8575 a73c
000000c0: 7427 d23d a99d 933d 7144 323d ff89 e53c
000000d0: 809a f33c c2f6 3c3d 6ff0 45bc 14d7 cebd
000000e0: 775b 87bd 7f9a c83d 6179 263c 1333 b1bd
000000f0: 5c50 ab3c 3c90 c23d fff5 d0bd 1f71 94bd
00000100: d400 2cbd 12fe e23b faa6 bdbc 7fd9 16bc
00000110: 19d6 d7bd 24e5 603d 1572 cd3d 488f 903d
00000120: 85e2 9bbd 2a4e b2bd c6de 473d c3c7 ae3b
00000130: ee98 463d 6aa2 d8bd 081a 80bb e8fa a53d
00000140: a1cf 5d3d 01de 643b f51f ad3c 0b2e 3bbc
00000150: c478 7ebd ffe5 2dbd 29dd 89bd 88e0 bd3d
00000160: 9eda 7a3d e536 1e3d 1659 aebd a986 af3d
00000170: 2766 0d3d 4bf9 9b3d 502f 35bd e3c1 bf3c
00000180: b007 de3d e0f0 983d 613d b63d a825 b8bc
00000190: 545f af3d bfb4 b0bd 08ec 1f3c 9c2d 80bd
000001a0: 6dcf d4bc 01d1 e8bc 62bc 0a3c e721 cf3d
000001b0: fe47 653d b82a 633a ff05 a43d a01c 66bd
000001c0: a5f5 6b3d 88dc 27bc 3863 9ebc 5792 533c
000001d0: f8f5 aebd 19e5 623c eb8a 1e3d e160 c53d
000001e0: 3288 09bd c7ea 263d 1250 e43d d0cb 42bd
000001f0: 9faf d73d 0753 64bd 046e 4c3d 5b0c 373d
00000200: b855 033d 6884 b53d bf18 35bd 6e22 f33c
00000210: cf9c 513a bdfe abbd a062 e2bc c9f7 95bd
00000220: f738 4d3d a7dc 2c3c d0c7 353c 8313 09bd
00000230: e16c 583a c113 0dbd fe52 013d 8bf6 db3d
00000240: 679f 923c ad3f 46bd 94bd 8abd 80df 043c
00000250: 374d a9bd 3cb2 aabd 3659 93bd fdf0 19bd
00000260: 4532 083c e0d0 9f3d a850 353d 6b21 af3d
00000270: 0946 8fbd 36f1 173c e82d c9bd 31d1 843d
00000280: 68eb c73c adf3 de3d 83a0 cabd 977f af3d
00000290: 10b9 d03d 1b6f d93d 6248 1a3d b364 f73d
000002a0: 47d9 b83d 38c7 c43d 9636 af3b 6b39 d3bd
000002b0: da1a 24bb 770c ff3c e606 6ebd 3351 29bd
000002c0: 513e b1bd a937 b8bc e478 e33d 7f67 073d
000002d0: c591 c1bc 4b36 923b 82ad a33d 130c a8bd
000002e0: 1060 87bd 9c05 a2bc 573f 4abd 6a0c 923d
000002f0: 6afd be3d b92b fbbd f86e bcbd a532 c5bd
00000300: 049f 693d 8645 da3d 6042 92bd 8579 1cbd
00000310: 465e 4c3d cd51 65bd 5505 a83d dd68 fd3c
00000320: 6a15 8fbc 0137 b33c f42e 4d3d 6007 d6bc
00000330: be71 96bd 28a6 843c 2823 a93c 9ac5 a9bc
00000340: 66be 9dbc fee8 9d3d f7b0 bcbc 1bd1 f3b9
00000350: a639 593d 3468 7cbd 6460 313d c1ce 95bb
00000360: bddd fc3b dc64 8bbd 72a0 4b39 47cd 3e3c
00000370: 18b1 a0bd f4dd 96bd 717a 503d 6070 7fbc
00000380: dee9 c43d ef32 94be f574 a8bd 5fa9 02be
00000390: f4c8 863c d475 14bc 9230 f3bc 1faa dfbc
000003a0: 2835 b5bd cc6a 323d 8492 32be 509a eebd
000003b0: 26f6 143b efd0 f5bc ee61 e4bd ff65 593d
000003c0: b634 573d 91e6 b9bc f388 89bd 67f4 bd3b
000003d0: a96c ae3d 60f4 d23d 401f a9bd f542 48bd
000003e0: 4d11 b43d f669 643d 56c6 8f3d 02dd 5cbd
000003f0: ddcc c63d b453 b8bd b068 84bb e699 6a3b

conv1.bias f4 [64]
-0.0249187 -0.07094743 0.012896551 -0.06644192 0.039726086 0.052110095 0.06437709 0.05074902
0.16332155 -0.05388071 0.0076388316 0.072452955 -0.09268374 0.08944678 0.07045602 0.032286033
-0.036393967 -0.056995433 0.05758578 0.032220222 0.015518196 -0.088625714 -0.08597675 0.07374932
-0.059625074 0.07912941 -0.018766811 -0.027250051 0.032637905 0.032588094 0.097000785 -0.022364678
0.048739985 0.027102847 -0.0018520469 -0.10128599 -0.04920001 0.09186669 -0.09422847 0.027998151
-0.05496809 -0.05527361 0.09389238 -0.008052822 0.04042563 0.02623786 -0.066249914 -0.11109833
-0.08147248 -0.023040142 -0.04997493 -0.075891785 0.049220763 -0.013665161 0.011116167 -0.021620773
0.13158247 -0.048651073 -0.0038604655 0.06543319 0.10245016 -0.095827475 -0.13713408 -0.08670367
00000000: 4d22 ccbc e34c 91bd 0e4c 533c b412 88bd
00000010: d2b7 223d 6571 553d 23d8 833d 34de 4f3d
00000020: c43d 273e 05b2 5cbd 2a4f fa3b 3762 943d
00000030: f9d0 bdbd e02f b73d 3f4b 903d 5c3e 043d
00000040: d711 15bd 0b74 69bd 11df 6b3d 5af9 033d
00000050: 0840 7e3c 6681 b5bd 9414 b0bd e209 973d
00000060: 6c39 74bd 9a0e a23d dbbc 99bc 803b dfbc
00000070: 53af 053d 187b 053d 59a8 c63d 2136 b7bc
00000080: 94a3 473d ca06 de3c 62c0 f2ba 076f cfbd
00000090: f385 49bd 9a24 bc3d dbfa c0bd 615c e53c
000000a0: 3826 61bd 9566 62bd a64a c03d fcef 03bc
000000b0: 5895 253d c8f0 d63c 09ae 87bd 8587 e3bd
000000c0: 0bdb a6bd aebe bcbc 83b2 4cbd 276d 9bbd
000000d0: b69b 493d d7e3 5fbc 9520 363c 0c1e b1bc
000000e0: 8ebd 063e 5946 47bd ddff 7cbb d601 863d
000000f0: 64d1 d13d 3241 c4bd e06c 0cbe b291 b1bd

conv2.weight f4 [32, 64, 5, 5]
0.0054576374 0.012312412 -0.008908917 -0.01649703 -0.00020097819 -0.004201603 -0.013965388 -0.022604758
-0.01626375 0.001355008 0.016875051 -0.016029038 -0.008128202 -0.019534066 0.010583567 0.0069982517
0.023750236 0.0097764395 0.00015646603 0.024334775 0.023190364 0.030544428 -0.010873512 0.016535835
-0.015345487 -0.014290276 0.019516626 0.01192147 -0.013647881 -0.015642498 -0.0115599 0.02054457
0.009738545 0.002417 -0.01576691 0.00958588 -0.0041016047 0.016121339 0.0070992527 0.012525933
-0.0068522897 0.0010570441 -0.012483987 0.006925534 -0.00068708777 -0.020076735 0.014934522 0.01110933
0.015779765 0.01206443 0.026366323 0.038604364 -0.009128597 -0.00029693393 -0.015942862 -0.0065302425
0.020139229 0.029121675 0.03046132 0.01385447 0.049832024 0.014838672 0.004611612 0.012791592
-0.02187483 0.0010020992 0.012311316 0.023083251 0.016036794 -0.02330513 0.011700655 -0.005945503
-0.020734863 -0.030541282 -0.03335208 0.010073433 -0.011797935 -0.01566513 -0.018126179 -0.013114902
-0.0022435714 0.020120827 -0.013795068 -0.020444164 0.022279033 0.014858517 0.009175663 -0.015460554
0.018722724 0.011501733 0.0047820252 0.019630246 0.008538922 0.016594736 -0.006235238 0.016955039
-0.010537808 0.0076511917 -0.014134315 -0.021578928 -0.019317942 -0.017017605 0.014638064 0.024963066
0.016006785 0.001041662 0.0011599405 0.00467447 0.02498285 0.014382154 -0.01354549 -0.012394736
0.021748694 0.014900671 -0.022949938 -0.019337814 0.014156434 -0.010739375 0.020163655 0.017550174
-0.018671703 0.0068425713 -0.0031090789 -0.023041345 0.008906109 0.012334465 0.023740595 -0.028146468
-0.02326743 -0.030925756 -0.026092304 0.012545774 -0.019077092 -0.004948856 -0.025931822 0.016565027
0.025641128 0.029337063 0.041158784 0.022874773 0.023250213 0.020199573 -0.019555641 -0.0023119184
0.01754468 0.024798412 0.046550043 0.040318504 0.013726302 -0.0024602506 -0.012660208 0.0004930304
-0.014463391 0.026508918 -0.019635038 0.023222758 0.017981902 -0.020240786 -0.013492614 0.024530986
-0.0019065024 -0.016210487 0.002099601 -0.0047476897 0.0041681835 0.010952341 -0.020021763 -0.011755432
0.0002783971 0.024232911 -0.018010212 -0.012168226 0.015028183 0.024665643 0.003953334 -0.0006017893
0.011483424 -0.0038607093 0.016636377 0.028020805 0.017925398 -0.02409032 0.01999698 0.024744583
0.012703664 -0.006841478 -0.0018729893 -0.015237192 -0.002544196 0.01789899 -0.0043383096 -0.0014842164
-0.002689473 0.001267359 0.00446343 -0.0015804138 -0.022468502 -0.006717406 -0.011825503 -0.008832101
-0.038187042 -0.026233446 -0.021213166 -0.015100473 -0.02190964 0.03400172 0.015750555 0.012163058
0.019113332 0.004418602 0.002869195 -0.0076424554 -0.0103124995 0.0024376102 -0.059374172 0.06662587
0.034490332 0.020038158 0.013728402 -0.0056505133 -0.018882317 0.019656787 0.0069681276 -0.02644763
-0.0023230577 -0.0067903213 0.012580234 0.0010831357 -0.0014792345 0.017368875 0.016365798 0.02049985
0.037772868 0.030263657 0.0059337155 -0.0013294345 0.0069602723 0.002632223 -0.004945259 -0.018577565
-0.0031580662 0.012505863 0.0070608836 -0.013344689 -0.0008216277 0.017920028 0.0016223524 -0.0134703405
-0.0070412606 0.006022501 -0.0041659027 -0.011678711 -0.018875737 0.0042845183 0.009926823 -0.03195191
00000000: fbd5 b23b 00ba 493c b5f6 11bc c824 87bc
00000010: acbd 52b9 9aad 89bb 15cf 64bc 9d2d b9bc
00000020: 8e3b 85bc 869a b13a 8c3d 8a3c 544f 83bc
00000030: 262c 05bc e805 a0bc b366 2d3c 9751 e53b
00000040: db8f c23c 5c2d 203c 0811 2439 b959 c73c
00000050: b8f9 bd3c 4f38 fa3c d126 32bc 2976 873c
00000060: a36b 7bbc c321 6abc 55e1 9f3c 4552 433c
00000070: 5d9b 5fbc b224 80bc bc65 3dbc 164d a83c
00000080: 6b8e 1f3c 8866 1e3b 9b29 81bc 180e 1d3c
00000090: c166 86bb e610 843c d9a0 e83b 9239 4d3c
000000a0: 2c89 e0bb 848c 8a3a a389 4cbc 97ef e23b
000000b0: ae1d 34ba f777 a4bc edaf 743c e803 363c
000000c0: 9144 813c e3a9 453c 30fe d73c 9c1f 1e3d
000000d0: 1c90 15bc ccad 9bb9 9b9a 82bc a5fb d5bb
000000e0: 06fb a43c 9490 ee3c 058a f93c dcfd 623c
000000f0: aa1c 4c3d e71d 733c 011d 973b d393 513c
00000100: d832 b3bc df58 833a 67b5 493c 1619 bd3c
00000110: 985f 833c 66ea bebc 1bb4 3f3c 7ed2 c2bb
00000120: 29dc a9bc b631 fabc 319c 08bd 0a0b 253c
00000130: 204c 41bc 2954 80bc 5a7d 94bc e3df 56bc
00000140: e208 13bb 6fd4 a43c b504 62bc 857a a7bc
00000150: 8582 b63c 2371 733c 8555 163c 434e 7dbc
00000160: 6660 993c c471 3c3c 89b2 9c3b 9ccf a03c
00000170: d6e6 0b3c aff1 873c f850 ccbb 4be5 8a3c
00000180: c5a6 2cbc d9b6 fa3b 9d93 67bc 4bc6 b0bc
00000190: a940 9ebc 8168 8bbc 7ed4 6f3c 587f cc3c
000001a0: a920 833c 6088 883a 2509 983a 4c2c 993b
000001b0: d5a8 cc3c 20a3 6b3c e7ed 5dbc 4a13 4bbc
000001c0: 512a b23c f221 743c 8201 bcbc 566a 9ebc
000001d0: 63f0 673c 34f4 2fbc 402e a53c 62c5 8f3c
000001e0: 66f5 98bc a637 e03b b0c1 4bbb 34c1 bcbc
000001f0: eeea 113c 7f16 4a3c a37b c23c 6c93 e6bc
00000200: 569b bebc 0358 fdbc 87bf d5bc ca8c 4d3c
00000210: 9047 9cbc 032a a2bb f96e d4bc 61b3 873c
00000220: 580d d23c 4854 f03c 1d96 283d e063 bb3c
00000230: 3b77 be3c 9379 a53c 2733 a0bc 8e83 17bb
00000240: dcb9 8f3c 0a26 cb3c 42ab 3e3d 0425 253d
00000250: 49e4 603c 283c 21bb c36c 4fbc b63e 013a
00000260: dcf7 6cbc 3b29 d93c a9d9 a0bc a73d be3c
00000270: c84e 933c 01d0 a5bc 2010 5dbc 35f5 c83c
00000280: 9be3 f9ba dbcb 84bc 7699 093b 8292 9bbb
00000290: 4295 883b 7371 333c ae04 a4bc db99 40bc
000002a0: d4f5 9139 1984 c63c 278a 93bc 3d5d 47bc
000002b0: c538 763c 9a0f ca3c f88a 813b 65c1 1dba
000002c0: f924 3c3c f403 7dbb 0349 883c e38b e53c
000002d0: 49d8 923c 1059 c5bc b5d0 a33c 27b5 ca3c
000002e0: 0723 503c 7a2e e0bb 187f f5ba 6aa5 79bc
000002f0: 87bc 26bb e7a0 923c 6128 8ebb 0a8a c2ba
00000300: df41 30bb 831d a63a f741 923b e325 cfba
00000310: dd0f b8bc b01d dcbb c1bf 41bc 84b4 10bc
00000320: 046a 1cbd 86e7 d6bc 3cc7 adbc f967 77bc
00000330: d87b b3bc 6345 0b3d 4f07 813c 9047 473c
00000340: 9093 9c3c ecc9 903b 1b09 3c3b 906d fabb
00000350: c2f5 28bc 50c0 1f3b 5532 73bd 2573 883d
00000360: bc45 0d3d 1027 a43c 17ed 603c f127 b9bb
00000370: 17af 9abc 4507 a13c e454 e43b b3a8 d8bc
00000380: 713e 18bb 5881 debb 531d 4e3c 01f8 8d3a
00000390: e0e2 c1ba 2c49 8e3c 9111 863c 4def a73c
000003a0: b9b7 1a3d 7deb f73c 9d6f c23b 6b40 aeba
000003b0: ff12 e43b 6081 2c3b d70b a2bb fa2f 98bc
000003c0: 8ff7 4ebb 64e5 4c3c fc5e e73b afa3 5abc
000003d0: 8062 57ba 06cd 923c 1da5 d43a b4b2 5cbc
000003e0: 60ba e6bb 6658 c53b 2082 88bb 1058 3fbc
000003f0: 4aa1 9abc 2565 8c3b 1da4 223c 02e0 02bd

conv2.bias f4 [32]
-0.0085359365 -0.021433145 -0.00028353167 0.013949566 0.025819845 0.021841006 -0.0110408915 0.003735299
0.004856938 -0.0105027985 0.0013670116 0.009910008 0.02490242 0.009595138 0.081819564 -0.004667297
-0.015774561 -0.01750976 0.019430265 0.021458639 0.02284703 -0.0036019639 -0.004536045 0.0026748935
0.015785277 0.00083431485 0.015041415 0.024031233 0.008859837 -0.0043506036 0.013507554 -0.002095554
00000000: 50da 0bbc 9094 afbc faa6 94b9 b88c 643c
00000010: 2484 d33c e9eb b23c dbe4 34bc ebcb 743b
00000020: f326 9f3b ee13 2cbc 4c2d b33a 965d 223c
00000030: 2900 cc3c ed34 1d3c 0491 a73d 20f0 98bb
00000040: a739 81bc a170 8fbc 382c 9f3c 07ca af3c
00000050: b229 bb3c ed0e 6cbb 1aa3 94bb 444d 2f3b
00000060: 2050 813c ecb5 5a3a 4470 763c 26dd c43c
00000070: da28 113c 828f 8ebb ca4e 5d3c 9055 09bb

conv3.weight f4 [1, 32, 5, 5]
0.019285131 0.018342558 -0.0016422075 0.02462001 0.030459238 -0.029053342 0.00173227 -0.03370396
0.0044179624 0.010463862 -0.0020096723 0.028342105 0.01272435 -0.02932569 -0.0027134358 -0.015219909
-0.028034657 0.00045903595 -0.031320624 0.023734264 0.0047752103 0.013019197 0.020081313 0.028057322
-0.017109526 0.0025456783 -0.032922942 0.008249158 0.02667001 -0.021881888 0.020811802 -0.016192902
0.01011994 -0.015287535 0.0070343865 -0.033212923 0.026509315 -0.0081339665 0.032826666 -0.01253016
0.015640453 -0.016608555 -0.014550327 -0.008594545 0.017109053 0.01428444 0.02065986 -0.005495684
0.004761045 0.022006702 -0.013883028 -0.01168436 0.026845902 -0.029889638 -0.017164994 -0.019679798
-0.0075136432 -0.02606241 0.008169186 -0.024746507 -0.015639076 -0.03449769 0.023493344 -0.021733288
-0.004297424 -0.021177271 -0.004981094 -0.006861065 -0.011573879 -0.0005673825 0.014955313 0.029015163
0.026125535 -0.026306072 -0.004155233 -0.027150894 0.018252607 0.02436555 0.009635308 0.011790076
0.035221208 -0.0038242226 -0.03051811 -0.016749615 -0.010533504 0.01633579 7.496304e-05 0.026989507
0.019123614 -0.010636067 -0.009627928 -0.012640152 -0.032757223 -0.01181905 -0.016754271 -0.0071525997
-0.008483384 -0.0139775695 -0.016678553 0.0056372867 0.0066454443 0.007863832 0.014465178 -0.002532292
0.004115754 -0.006781799 0.032026216 -2.9646984e-05 0.025457494 -0.020634487 -0.02722252 0.00460849
-0.031901438 0.020645967 0.020318111 0.029171681 0.032265853 0.011564523 0.013748359 -0.00514424
0.032525852 0.015271896 -0.00825167 -0.032304782 0.0046203407 0.004267927 0.027797073 0.021380225
0.031559967 0.0041045756 0.011778476 -0.026019914 0.006905452 0.010858021 -0.01783955 -0.015999258
0.018843673 -0.016417468 -0.009555477 0.028404523 0.02994522 -0.025352092 -0.027867656 0.025767744
-0.007960568 0.0050123455 -0.020927403 -0.013304749 0.02869687 -0.021157121 0.013093666 0.0017044218
0.011200536 0.0018270876 -0.0072524035 0.012732286 0.009932995 -0.0030027884 0.024050377 0.031734593
0.018745122 -0.009630473 -0.025281865 -0.023523632 -0.016830316 -0.0024812645 0.018478498 0.0099752825
0.03197016 -0.03351631 -0.019130286 0.032868184 -0.024896597 0.02294575 0.0019381983 -0.003440103
0.025427194 0.027517857 -0.014099294 -0.0015668973 0.033502687 0.029715944 0.014234115 -0.02119645
-0.023567561 0.0256895 0.020393487 -0.0042915265 0.034119707 0.024843767 -0.007351341 0.01571899
0.034314465 0.02061799 -0.016949479 -0.032941323 0.011116687 0.013330463 -0.034646522 0.0055255247
-0.031714823 0.0033278465 -0.02915614 -0.038179006 0.023296714 0.013351788 -0.02223007 -0.033533905
0.018848069 -0.025215056 -0.008502545 -0.014514042 0.011562664 0.0006841522 0.016247477 -0.030526547
0.016620923 -0.003974763 -0.02958163 -0.031093175 0.0012090255 -0.035423737 -0.010032107 -0.018921716
-0.03685298 0.034670744 -0.012502833 0.015106926 0.022542186 0.011935483 0.033933472 -0.02368739
0.00401962 -0.00050322287 0.017511174 -0.01463243 -0.020368636 -0.026689937 0.024835754 0.0103048105
-0.032472268 -0.0016374494 -0.028551081 -0.028698003 0.022417916 -0.017254576 0.021412427 0.033231523
0.005630316 0.015830206 -0.030965827 -0.015173456 -0.0020305333 0.0074707074 0.014209492 0.018975053
00000000: dafb 9d3c 2243 963c 573f d7ba e7af c93c
00000010: a785 f93c 4601 eebc 560d e33a 2a0d 0abd
00000020: 8ec4 903b 9e70 2b3c b5b4 03bb b42d e83c
00000030: cb79 503c 6e3c f0bc e6d3 31bb ed5c 79bc
00000040: f0a8 e5bc c3aa f039 0e4a 00bd 5c6e c23c
00000050: 5e79 9c3b 784e 553c 9181 a43c 78d8 e53c
00000060: 4729 8cbc 65d5 263b 35da 06bd 7a27 073c
00000070: 117b da3c a541 b3bc 837d aa3c faa6 84bc
00000080: 1bce 253c 9278 7abc b680 e63b 460a 08bd
00000090: 102a d93c 5444 05bc 4175 063d 4d4b 4dbc
000000a0: 6820 803c aa0e 88bc 7f64 6ebc 22d0 0cbc
000000b0: 4928 8c3c 4909 6a3c de3e a93c 2415 b4bb
000000c0: 8a02 9c3b 6647 b43c a475 63bc c26f 3fbc
000000d0: f0eb db3c 1ddb f4bc 9a9d 8cbc 8737 a1bc
000000e0: 0235 f6bb d680 d5bc 0dd8 053c 30b9 cabc
000000f0: 851d 80bc 734d 0dbd 1d75 c03c 020a b2bc
00000100: 68d1 8cbb f57b adbc 7238 a3bb c9d2 e0bb
00000110: 5ea0 3dbc 65bc 14ba 2107 753c 35b1 ed3c
00000120: 3805 d63c d57f d7bc 9f28 88bb 8d6b debc
00000130: 7e86 953c 439a c73c 69dd 1d3c 2a2b 413c
00000140: 1d44 103d cf9f 7abb 1e01 fabc 7d36 89bc
00000150: b894 2cbc a2d2 853c 7a35 9d38 1919 dd3c
00000160: 20a9 9c3c e642 2ebc 75be 1dbc a418 4fbc
00000170: 702c 06bd b0a4 41bc 4140 89bc 5b60 eabb
00000180: e4fd 0abc 2d02 65bc 76a1 88bc fdb8 b83b
00000190: 07c2 d93b 4dd7 003c 5bff 6c3c cff4 25bb
000001a0: 72dd 863b da39 debb ec2d 033d 6ab2 f8b7
000001b0: 3c8c d03c a809 a9bc c301 dfbc d102 973b
000001c0: 15ab 02bd bb21 a93c 2b72 a63c 73f9 ee3c
000001d0: 3329 043d 2079 3d3c cc40 613c 0391 a8bb
000001e0: d439 053d f936 7a3c 0332 07bc 0552 04bd
000001f0: 3a66 973b f7d9 8b3b b0b6 e33c 9525 af3c
00000200: 0645 013d ad7f 863b 82fa 403c b727 d5bc
00000210: 2147 e23b d7e5 313c 3f24 92bc e010 83bc
00000220: 0c5e 9a3c ed7d 86bc 938e 1cbc 9ab0 e83c
00000230: ae4f f53c 31af cfbc b64a e4bc e016 d33c
00000240: 0b6d 02bc 9a3e a43b f26f abbc 29fc 59bc
00000250: b315 eb3c b351 adbc d186 563c e866 df3a
00000260: 7482 373c e37a ef3a 92a5 edbb 149b 503c
00000270: 00be 223c 6eca 44bb 4c05 c53c 22fc 013d
00000280: 5f8f 993c 22c9 1dbc ea1b cfbc a2b4 c0bc
00000290: bbdf 89bc b69c 22bb 3860 973c 5e6f 233c
000002a0: 24f3 023d 6648 09bd 1eb7 9cbc caa0 063d
000002b0: f3f3 cbbc baf8 bb3c 250b fe3a 5a73 61bb
000002c0: b14c d03c 216d e13c ba00 67bc 5960 cdba
000002d0: 1d3a 093d da6e f33c 3536 693c 2da4 adbc
000002e0: c210 c1bc c972 d23c 3e10 a73c ef9f 8cbb
000002f0: 1bc1 0b3d 2885 cb3c 85e3 f0bb 1cc5 803c
00000300: 538d 0c3d 0fe7 a83c a2d9 8abc 7bed 06bd
00000310: c422 363c 0468 5a3c 83e9 0dbd 760f b53b
00000320: 67e7 01bd 0018 5a3b dbd8 eebc 9761 1cbd
00000330: c0d8 be3c 75c1 5a3c d61b b6bc d95a 09bd
00000340: 4467 9a3c ce8f cebc 424e 0bbc 4ecc 6dbc
00000350: 5471 3d3c ad58 333a 6e19 853c cf12 fabc
00000360: 9a28 883c bb3e 82bb 2d55 f2bc 1db7 febc
00000370: 2a78 9e3a 7b18 11bd b55d 24bc b701 9bbc
00000380: 26f3 16bd e902 0e3d afd8 4cbc 0a83 773c
00000390: 64aa b83c 0b8d 433c d3fd 0a3d 0f0c c2bc
000003a0: 04b7 833b b7ea 03ba 9873 8f3c dcbc 6fbc
000003b0: 20dc a6bc dba4 dabc 5a74 cb3c 82d5 283c
000003c0: a401 05bd af9f d6ba f5e3 e9bc 1318 ebbc
000003d0: c7a5 b73c 7859 8dbc 1d69 af3c c71d 083d
000003e0: 847e b83b 59ae 813c 0cac fdbc 169a 78bc
000003f0: b212 05bb d6cc f43b eece 683c 9271 9b3c
