SRCNN/LargeTrial/Checkpoints and results/x2/outputs_x2/x2/best.pth (torch, 231399 bytes, 5 tensors)

conv1.weight f4 [64, 1, 9, 9]
-0.042299807 0.0065694484 -0.052159242 0.045089178 -0.09132871 0.08470641 -0.07767985 -0.08528893
-0.06727265 0.053003255 -0.03792173 0.045137372 -0.09103906 -0.06446711 -0.03767243 -0.018582648
-0.08167095 0.07562173 -0.023618953 0.038802046 0.082097195 0.024298916 0.034017555 0.11077903
-0.046501912 0.03878955 -0.04635662 0.08180223 0.09120446 -0.09981483 0.09847493 0.05747937
0.052367467 0.049559385 0.09629597 -0.011566212 -0.0918129 -0.029754536 -0.07584029 0.0107689
-0.016623296 -0.055939563 -0.0065059043 0.109168425 -0.005389962 0.005613137 -0.015052315 0.020464243
0.1024261 0.07143058 0.042702336 0.02746876 0.029722536 0.04624666 -0.012304236 -0.101197675
-0.06571815 0.0981501 0.009594832 -0.08697735 0.02096143 0.09492934 -0.10237638 -0.072820134
-0.04246078 0.0070628454 -0.022811692 -0.009405588 -0.10545022 0.055421013 0.10054492 0.07033074
-0.076632395 -0.0875796 0.048564255 0.0054518855 0.048563644 -0.10581765 -0.0038656667 0.08113575
0.054067317 0.003360246 0.021276537 -0.011090916 -0.061087795 -0.041562133 -0.06791015 0.09142438
0.060854774 0.038900815 -0.08564613 0.08595896 0.034873847 0.076857135 -0.043154914 0.024158891
0.1080008 0.07424908 0.08955068 -0.023736717 0.084731676 -0.08721639 0.008881643 -0.063163765
-0.02582444 -0.028102245 0.008039333 0.10019834 0.054805156 -0.0012020048 0.07852335 -0.056523718
0.05642786 -0.01161946 -0.019337727 0.0127073275 -0.08666989 0.013032619 0.0364576 0.09467807
-0.033822272 0.040064134 0.10975087 -0.048478693 0.10553185 -0.055550814 0.04899521 0.043321997
0.030243699 0.08711714 -0.044518564 0.02931101 0.00014326573 -0.08385458 -0.02703844 -0.07474239
0.049171116 0.009811551 0.009725654 -0.034114044 0.00085206237 -0.034743097 0.03128715 0.10730372
0.015953885 -0.050334703 -0.06801121 0.008329389 -0.083402 -0.084292404 -0.07253671 -0.03846878
0.0073869536 0.076227546 0.0419558 0.08448487 -0.06965765 0.008358434 -0.09996957 0.06325453
0.022682663 0.10726168 -0.048829548 0.08502404 0.067281686 0.10034738 0.06343689 0.1328076
0.08547571 0.09921334 0.012420674 -0.06971552 0.041128196 0.029629165 -0.08357638 -0.05737472
-0.08888148 -0.02011339 0.105604455 0.023624428 -0.0071643763 0.05081758 0.0840414 -0.10527888
-0.09325552 -0.042743914 -0.055041377 0.078280166 0.09345161 -0.13173707 -0.13510214 -0.14078815
0.08225077 0.14290263 -0.09567209 -0.08087341 0.052828323 -0.042905133 0.043681752 -0.07128528
-0.071306355 0.0910553 0.12130329 -0.050486725 -0.12247444 0.027276006 0.04342549 -0.03823983
-0.050246447 0.07976601 2.8960094e-05 -0.0071776453 0.038417313 -0.04355044 0.07941308 0.0041730297
0.01065222 -0.05639346 0.043018874 0.022963678 -0.12218795 -0.09265177 0.07819669 0.007821376
0.07581631 -0.26268858 -0.07335414 -0.10613339 0.029339762 -0.025756968 -0.039306786 -0.02077611
-0.079976894 0.032688312 -0.030187873 -0.07868611 0.023986159 -0.0035395925 -0.110200204 0.049872104
0.049506117 -0.022761902 -0.07419273 0.0056834053 0.08518976 0.10315899 -0.082406044 -0.049076587
0.08772707 0.055834766 0.07019727 -0.054127395 0.09711816 -0.08997944 -0.0040240204 0.0037304426
00000000: 9042 2dbd 8744 d73b eea4 55bd 6eaf 383d
00000010: 8c0a bbbd 8e7a ad3d 9d16 9fbd f6ab aebd
00000020: 3ec6 89bd f119 593d d153 1bbd f7e1 383d
00000030: b072 babd 5507 84bd 684e 1abd a33a 98bc
00000040: 1943 a7bd 91df 9a3d 897c c1bc e5ee 1e3d
00000050: 9322 a83d 850e c73c fe55 0b3d 1ee0 e23d
00000060: ca78 3ebd cbe1 1e3d 70e0 3dbd ed87 a73d
00000070: 67c9 ba3d b86b ccbd 39ad c93d 7d6f 6b3d
00000080: 457f 563d c8fe 4a3d d236 c53d 3680 3dbc
00000090: 6708 bcbd c9bf f3bc 2752 9bbd 0a70 303c
000000a0: 942d 88bc e220 65bd 7b2f d5bb b293 df3d
000000b0: 479e b0bb 68ee b73b fc9d 76bc a1a4 a73c
000000c0: c6c4 d13d 324a 923d a5e8 2e3d 2a06 e13c
000000d0: ad7c f33c 236d 3d3d b597 49bc ba40 cfbd
000000e0: 3d97 86bd eb02 c93d a433 1d3c 2e21 b2bd
000000f0: 4eb7 ab3c 506a c23d b5aa d1bd b922 95bd
00000100: 5beb 2dbd 716f e73b 96df babc e519 1abc
00000110: 49f6 d7bd 2501 633d 7fea cd3d 9009 903d
00000120: 72f1 9cbd ef5c b3bd 50eb 463d bba5 b23b
00000130: acea 463d edb6 d8bd 2057 7dbb 802a a63d
00000140: b175 5d3d 9337 5c3b 224c ae3c acb6 35bc
00000150: 3237 7abd 0e3d 2abd 7a14 8bbd b53c bb3d
00000160: db42 793d 7656 1f3d 3d67 afbd 400b b03d
00000170: e1d7 0e3d 4667 9d3d 35c3 30bd dee8 c53c
00000180: 862f dd3d e70f 983d 5966 b73d 8173 c2bc
00000190: cd87 ad3d 829e b2bd 5084 113c 015c 81bd
000001a0: c78d d3bc ae36 e6bc 68b7 033c ca34 cd3d
000001b0: 5f7b 603d 978c 9dba dad0 a03d 6a85 67bd
000001c0: e620 673d 8c5f 3ebc 276a 9ebc 6532 503c
000001d0: fc7f b1bd c486 553c 9054 153d 93e6 c13d
000001e0: 3989 0abd 4a1a 243d 10c5 e03d 9891 46bd
000001f0: 1521 d83d 4089 63bd 34af 483d 6872 313d
00000200: a2c1 f73c 796a b23d 1959 36bd a51d f03c
00000210: 9a39 1639 f3bb abbd b87f ddbc 8a12 99bd
00000220: a767 493d a1c0 203c 5958 1f3c 2bbb 0bbd
00000230: f05c 5f3a c74e 0ebd f426 003d 0ec2 db3d
00000240: b9b1 823c c32b 4ebd 7649 8bbd fd77 083c
00000250: abce aabd 7fa1 acbd 208e 94bd 7191 1dbd
00000260: 420e f23b 301d 9c3d d8d9 2b3d 6706 ad3d
00000270: aca8 8ebd d0f1 083c d9bc ccbd 978b 813d
00000280: fed0 b93c 03ac db3d 7e01 48bd 1521 ae3d
00000290: fbca 893d ed82 cd3d 33eb 813d b7fe 073e
000002a0: e40d af3d 5d30 cb3d 1580 4b3c 03c7 8ebd
000002b0: 0a76 283d ddb8 f23c 182a abbd c101 6bbd
000002c0: 7e07 b6bd d6c4 a4bc 2647 d83d 0488 c13c
000002d0: 25c3 eabb 1826 503d e61d ac3d 749c d7bd
000002e0: c0fc bebd 3e14 2fbd 1173 61bd 5a51 a03d
000002f0: 8f63 bf3d 15e6 06be 3758 0abe c52a 10be
00000300: 1773 a83d 1155 123e bbef c3bd f5a0 a5bd
00000310: 8362 583d 4bbd 2fbd a3eb 323d 04fe 91bd
00000320: 1109 92bd 337b ba3d dc6d f83d 2bcb 4ebd
00000330: e1d3 fabd ee71 df3c edde 313d 5ea1 1cbd
00000340: 38cf 4dbd 5d5c a33d 54ef f237 7432 ebbb
00000350: 795b 1d3d f261 32bd 53a3 a23d e9bd 883b
00000360: a686 2e3c d4fc 66bd 8f34 303d 531e bc3c
00000370: ad3d fabd 36c0 bdbd 9625 a03d 3b25 003c
00000380: 9545 9b3d 1e7f 86be b23a 96bd 765c d9bd
00000390: f159 f03c 4700 d3bc 2700 21bd a932 aabc
000003a0: edca a3bd 2ee4 053d 8f4c f7bc 2f26 a1bd
000003b0: 9f7e c43c 82f8 67bb a5b0 e1bd b146 4c3d
000003c0: edc6 4a3d 2b77 babc 5cf2 97bd dc3b ba3b
000003d0: f877 ae3d 0545 d33d 80c4 a8bd 8804 49bd
000003e0: 40aa b33d ffb2 643d 96c3 8f3d b0b4 5dbd
000003f0: e3e5 c63d 2447 b8bd eedb 83bb 717a 743b

conv1.bias f4 [64]
-0.025456795 -0.070868105 0.02982856 -0.06575608 0.039506715 -0.022574741 0.06423588 0.051202588
0.13575663 -0.057282258 0.006668188 0.011940863 -0.094585225 0.08910383 0.0718618 0.0633302
-0.035899535 -0.057087127 0.057573833 0.04763593 0.015405456 -0.010105033 -0.085030936 0.073713645
-0.05944043 0.08017834 -0.017121503 -0.027366515 0.03258002 0.03320587 0.09673441 0.006272281
0.04895093 0.08528047 0.015375657 -0.10010412 -0.014645328 0.09186896 -0.09427129 0.026446344
-0.054786436 -0.05527361 0.095388316 -0.008831135 0.04058207 0.027451234 -0.074420854 -0.11109833
-0.05448645 -0.011505039 -0.019624077 -0.040354297 0.048977878 0.0026682958 0.010849896 -0.01634243
0.086408004 -0.049023725 -0.003783111 0.06547019 0.102613665 -0.05332009 -0.048039373 -0.08921618
00000000: c58a d0bc 4c23 91bd 065b f43c 20ab 86bd
00000010: cbd1 213d aaee b8bc 1a8e 833d ceb9 513d
00000020: c903 0b3e cda0 6abd d180 da3b 9ca3 433c
00000030: e6b5 c1bd 127c b63d 482c 933d 44b3 813d
00000040: 640b 13bd 31d4 69bd 8ad2 6b3d e51d 433d
00000050: 2a67 7c3c 958f 25bc b324 aebd 2ef7 963d
00000060: cf77 73bd 8b34 a43d 6542 8cbc be2f e0bc
00000070: a172 053d e102 083d b11c c63d b587 cd3b
00000080: c580 483d 87a7 ae3d 2eea 7b3c 6403 cdbd
00000090: f5f2 6fbc cb25 bc3d 4e11 c1bd 01a6 d83c
000000a0: be67 60bd 9566 62bd f35a c33d 77b0 10bc
000000b0: 6239 263d 69e1 e03c f669 98bd 8587 e3bd
000000c0: 2f2d 5fbd a27f 3cbc acc2 a0bc 8c4a 25bd
000000d0: 079d 483d 93de 2e3b c3c3 313c 8fe0 85bc
000000e0: aef6 b03d 1acd 48bd 12ee 77bb 3c15 863d
000000f0: 1d27 d23d 2b66 5abd efc4 44bd f9b6 b6bd

conv2.weight f4 [32, 64, 5, 5]
0.0049102027 0.018533245 -0.011846138 -0.028285189 -0.010832664 -0.0060203252 -0.0068368036 -0.016792715
-0.020604908 -0.002295065 0.027593793 -0.009686437 -0.0023129957 -0.014624897 0.014436521 0.011003468
0.019033788 0.0028142384 0.0006526797 0.022733679 0.023936292 0.03078179 -0.019485336 0.011288392
-0.015135954 -0.014015179 0.01980195 0.01234977 -0.012666287 -0.014417016 -0.011691536 0.020567007
0.009545019 0.0018346754 -0.015420721 0.0089812195 -0.004415335 0.016258845 0.006837214 0.011861629
-0.006955653 0.00076025375 -0.012336199 0.0072560795 -0.0015282874 -0.019935537 0.014404715 0.010524891
0.015988251 0.0122819515 0.011908981 0.047462214 -0.032958843 -0.0251067 -0.02139995 -0.023334207
0.0019586992 0.010865136 0.042286437 0.023227997 0.007080898 -0.052956864 -0.04616709 0.016283825
-0.030369435 0.043020092 0.045019813 0.011649447 0.028304243 -0.008845298 0.046759855 0.05262721
-0.01981943 -0.041300826 -0.010390853 0.009393503 -0.011983062 -0.016183715 -0.01916285 -0.013234244
-0.003021977 0.019355131 -0.014284291 -0.020970514 0.022465622 0.014971065 0.009539293 -0.014695398
0.019129744 0.010840111 0.0048821233 0.019774746 0.009115582 0.016701266 -0.0072135227 0.016657474
-0.011466044 0.006739697 -0.013625529 -0.020838847 -0.019409064 -0.016109558 0.014400001 0.024691556
0.017493201 -0.00014334731 0.0011589369 0.0057407743 0.02479008 0.014182931 -0.013369204 -0.0130204195
0.022322567 0.01493346 -0.024720242 -0.018293362 0.013160145 -0.011830689 0.0206198 0.017541064
-0.018235043 0.007266395 -0.0034403428 -0.022843858 0.0103328815 -0.011004762 -0.009938013 -0.04213834
-0.013942371 -0.045502327 -0.044279158 -0.021373825 -0.04978476 -0.016793594 -0.043503273 0.0053021163
0.014916488 0.017153356 0.028423497 0.0022284463 0.014693705 0.015367864 -0.028195916 -0.0253814
0.0034425668 0.012324388 0.025742894 0.03391397 0.004438982 -0.015491963 -0.013509024 0.00033174534
-0.014823877 0.02584913 -0.019235067 0.02263358 0.018017564 -0.01975143 -0.013606238 0.024433017
-0.001312612 -0.016310358 0.0023778677 -0.004584437 0.0038457052 0.011550623 -0.020272154 -0.012107454
0.0002591938 0.024166461 -0.018271338 -0.012169369 0.014983615 0.02505476 0.0041875686 0.0045529814
0.0101109985 -0.0062218634 0.019995008 0.030943945 0.022085318 -0.019275742 0.020798076 0.022759961
0.010735203 -0.009828458 -0.0022866696 -0.013438588 -0.004111494 0.011872264 -0.00723758 -0.0072436766
-0.0040651583 0.004021545 0.004795478 0.0010434309 -0.022392051 -0.009168921 -0.011149478 -0.0028195346
0.030535487 -0.012601489 6.0051396e-05 0.05862473 0.05436401 0.032874685 0.009960221 -0.032133326
-0.01109564 0.020540465 0.027697833 0.05695664 0.0298582 0.04074268 0.027364556 -0.040212415
-0.0289556 -0.00966688 -0.028508816 -0.06816993 0.03184918 0.049860626 0.031904787 0.010019677
0.048635874 0.00785056 0.008092954 -0.006108579 0.00876984 0.034256227 0.034378745 0.012220432
0.027841689 0.028523492 0.009450408 0.012642135 0.011672305 -0.0013268255 -0.021388222 -0.036169503
-0.017073633 0.00077714404 -0.011172226 -0.029684799 -0.016115334 0.032477397 0.017918041 -0.014399368
0.0078775305 0.022796651 0.030458732 0.0404265 -0.0071932403 -0.034634262 -0.024558088 -0.054472532
00000000: c4e5 a03b 08d3 973c 4e16 42bc 57b6 e7bc
00000010: 7c7b 31bc 2646 c5bb 4407 e0bb e090 89bc
00000020: a0cb a8bc cd68 16bb 610c e23c ddb3 1ebc
00000030: a195 17bb 449d 6fbc 2887 6c3c e447 343c
00000040: bfec 9b3c 166f 383b 9818 2b3a fb3b ba3c
00000050: 0b16 c43c 182a fc3c b69f 9fbc f3f2 383c
00000060: cbfc 77bc ec9f 65bc b337 a23c b156 4a3c
00000070: 4286 4fbc 5935 6cbc db8d 3fbc 247c a83c
00000080: b662 1c3c 7e79 f03a 31a7 7cbc f725 133c
00000090: 84ae 90bb 4531 853c b50a e03b 4757 423c
000000a0: 3fec e3bb c44b 473a c51d 4abc 68c4 ed3b
000000b0: d150 c8ba da4f a3bc c101 6c3c 9870 2c3c
000000c0: cbf9 823c 3d3a 493c e31d 433c bd67 423d
000000d0: daff 06bd 91ac cdbc f34e afbc 6127 bfbc
000000e0: 855d 003b af03 323c 8b34 2d3d a448 be3c
000000f0: e106 e83b 4ce9 58bd b419 3dbd a865 853c
00000100: 52c9 f8bc d635 303d b266 383d 52dd 3e3c
00000110: 4dde e73c deeb 10bc 4387 3f3d a18f 573d
00000120: 5b5c a2bc 0e2b 29bd 653e 2abc 35e7 193c
00000130: 9b54 44bc b693 84bc 69fb 9cbc 71d4 58bc
00000140: 5c0c 46bb a78e 9e3c a908 6abc 5bca abbc
00000150: d309 b83c 3349 753c b24a 1c3c f7c4 70bc
00000160: fbb5 9c3c b99a 313c 38fa 9f3b a6fe a13c
00000170: 8659 153c 18d1 883c 6a5f ecbb 4175 883c
00000180: 13dc 3bbc add8 dc3b 9c3d 5fbc 3bb6 aabc
00000190: c2ff 9ebc 31f8 83bc fbed 6b3c f245 ca3c
000001a0: e74d 8f3c 804f 16b9 78e7 973a 1b1d bc3b
000001b0: 9114 cb3c 865f 683c 810a 5bbc 9953 55bc
000001c0: d1dd b63c 79ab 743c 1b82 cabc f6db 95bc
000001d0: a69d 573c 82d5 41bc dbea a83c 47b2 8f3c
000001e0: a861 95bc f01a ee3b 6077 61bb 0b23 bbbc
000001f0: 3f4b 293c 514d 34bc 0cd3 22bc 4199 2cbd
00000200: 8b6e 64bc a660 3abd 105e 35bd 2918 afbc
00000210: 1beb 4bbd b892 89bc 7d30 32bd 60bd ad3b
00000220: 4964 743c 3285 8c3c 65d8 e83c 200b 123b
00000230: debd 703c 7ec9 7b3c 1ffb e6bc a7ec cfbc
00000240: b09c 613b 3bec 493c c3e2 d23c 60e9 0a3d
00000250: e174 913b 01d2 7dbc f454 5dbc 1bee ad39
00000260: d9df 72bc 8ec1 d33c dc92 9dbc 0f6a b93c
00000270: 9299 933c c0cd a1bc b3ec 5ebc c027 c83c
00000280: f30b acba 4d9d 85bc 00d6 1b3b 0b39 96bb
00000290: 3a08 7c3b d33e 3d3c ca11 a6bc 585e 46bc
000002a0: 67e4 8739 bef8 c53c c6ad 95bc 0862 47bc
000002b0: d67d 753c a43f cd3c df37 893b 2d31 953b
000002c0: 9aa8 253c c6e0 cbbb 92cc a33c 287e fd3c
000002d0: 45ec b43c 29e8 9dbc ba60 aa3c 1973 ba3c
000002e0: b4e2 2f3c 8a07 21bc f3db 15bb 862d 5cbc
000002f0: b6b9 86bb e283 423c 3929 edbb 5d5c edbb
00000300: 0535 85bb 2ac7 833b 6323 9d3b bbc3 883a
00000310: 896f b7bc 3e39 16bc 4dac 36bc f1c7 38bb
00000320: 8f25 fa3c 7a76 4ebc b2df 7b38 7c20 703d
00000330: ccac 5e3d 9ba7 063d 3230 233c 3c9e 03bd
00000340: 7dca 35bc 7a44 a83c 91e6 e23c 5e4b 693d
00000350: 2f99 f43c cce1 263d a22b e03c c6b5 24bd
00000360: 4b34 edbc d561 1ebc 528b e9bc ad9c 8bbd
00000370: 4974 023d a83a 4c3d 98ae 023d 9229 243c
00000380: 6936 473d a39f 003c 4f98 043c 7a2a c8bb
00000390: 60af 0f3c 4250 0c3d bad0 0c3d 3538 483c
000003a0: 4114 e43c 19aa e93c e2d5 1a3c f520 4f3c
000003b0: 323d 3f3c e0e8 adba 5a36 afbc 7926 14bd
000003c0: 01de 8bbc 41b9 4b3a b60b 37bc 892d f3bc
000003d0: 4e04 84bc 0507 053d dbc8 923c 54eb 6bbc
000003e0: c210 013c 0bc0 ba3c 9784 f93c 4296 253d
000003f0: 46b5 ebbb a8dc 0dbd 0b2e c9bc 971e 5fbd

conv2.bias f4 [32]
-0.008323384 -0.021283979 0.011482421 0.021260628 0.025823427 0.022138853 -0.011015022 0.0036977893
-0.00033798252 -0.010860932 0.0013676357 0.010091264 0.024751231 0.008446287 0.036764964 -0.0041683684
-0.015879646 -0.017403608 0.0169636 0.021377796 0.027489545 -0.002798434 -0.0040068217 0.0035027817
0.020554459 0.014658256 0.015191503 0.024474824 0.008947664 -0.014007088 0.017919686 -0.0021443155
00000000: ce5e 08bc bd5b aebc c420 3c3c c52a ae3c
00000010: a78b d33c 8a5c b53c 5a78 34bc 9c56 723b
00000020: 3f33 b1b9 0df2 31bc 3d42 b33a d455 253c
00000030: 18c3 ca3c 4c62 0a3c dc96 163d cf96 88bb
00000040: 0816 82bc 0392 8ebc 3ff7 8a3c 7d20 af3c
00000050: c131 e13c ef65 37bb a84b 83bb ed8e 653b
00000060: d361 a83c 2f29 703c c8e5 783c 6d7f c83c
00000070: 3999 123c fc7d 65bc 4ecc 923c a587 0cbb

conv3.weight f4 [1, 32, 5, 5]
0.019269284 0.018257434 -0.0017046841 0.024636403 0.030467024 -0.029026274 0.0017702259 -0.033734396
0.004369677 0.01046713 -0.0020336779 0.028392563 0.012725905 -0.029394338 -0.0027335263 -0.015259321
-0.028054029 0.00048740636 -0.03131047 0.023726095 0.004786058 0.012981049 0.020083863 0.028076477
-0.01713881 0.0025331452 -0.032957323 0.008224038 0.026665343 -0.021889977 0.020811828 -0.016186228
0.010108854 -0.015310758 0.0070161247 -0.033236433 0.026514892 -0.008134773 0.03280701 -0.012547655
0.015625512 -0.016619526 -0.014566655 -0.008603757 0.017106634 0.0142575605 0.020628521 -0.0055293036
0.004727669 0.021971423 -0.008259504 -0.0092623755 0.034300618 -0.021313876 -0.009249894 -0.027036829
-0.014004043 -0.018476242 0.013212362 -0.029926015 -0.016339034 -0.03945192 0.027805727 -0.024414115
-0.00471044 -0.03333648 -0.0138338925 -0.014930429 -0.029019231 -0.010609124 0.016620738 0.038946528
0.036347482 -0.04007173 -0.010699223 -0.030692281 0.020302938 0.03033921 0.012699271 0.010749431
0.030023452 -0.0096210195 -0.03798398 -0.026166162 -0.021065367 0.02312296 0.006048978 0.032310784
0.025467565 -0.002824707 -0.009184567 -0.013333152 -0.034936674 -0.014073594 -0.018886799 -0.006877262
-0.008724719 -0.015321718 -0.01810829 0.0069243875 0.0066266186 0.007870553 0.014473994 -0.0025535473
0.0040878733 -0.006795873 0.032006793 -3.191195e-05 0.025436493 -0.020680213 -0.027252005 0.004564208
-0.03192771 0.020625135 0.020302845 0.029121414 0.032233093 0.011545397 0.013736105 -0.005156859
0.03249341 0.015262831 -0.008255571 -0.03231135 0.0046021356 0.0042384374 0.027774585 0.021383952
0.031571813 0.004080671 0.011793921 -0.026013857 0.006894488 0.0108364 -0.017857833 -0.015959427
0.018870253 -0.016428558 -0.00958933 0.02838731 0.029943096 -0.025380613 -0.027866373 0.025790289
-0.007979428 0.0049864934 -0.020966465 -0.013295146 0.02874248 -0.021148695 0.01301048 0.0016405234
0.011177743 0.0018131938 -0.007291444 0.012805156 0.00995058 -0.0030701095 0.024005238 0.031755753
0.01878926 -0.009576935 -0.02529695 -0.023579521 -0.01684951 -0.0025619098 0.018480869 0.010048597
0.032023467 -0.03353008 -0.01915768 0.032824177 -0.024917394 0.022970358 0.0019493161 -0.0034602543
0.025417052 0.027523497 -0.014113083 -0.0015942231 0.033485144 0.029697586 0.014226339 -0.021203004
-0.02358874 0.025668288 0.020373125 -0.004320211 0.03410827 0.024840284 -0.0073733926 0.015709817
0.034285538 0.020586178 -0.016965868 -0.03296657 0.011106278 0.01332804 -0.034651496 0.005506995
-0.027662273 0.012751296 -0.02189976 -0.032788627 0.032457773 0.020377044 -0.017936366 -0.031681757
0.01839608 -0.028899282 -0.006674799 -0.014719328 0.020189553 0.010613369 0.018537827 -0.020048
0.024469836 0.0032795467 -0.024727834 -0.025608355 0.021348266 -0.015892327 0.008421697 0.0008623425
-0.017212234 0.034637693 -0.012555748 0.015089409 0.02253633 0.011875207 0.033958703 -0.023709051
0.0039928546 -0.0004967066 0.01747793 -0.014612706 -0.020355059 -0.026707847 0.024826825 0.010307951
-0.032478373 -0.001616816 -0.028535374 -0.028711628 0.022409387 -0.0172829 0.021391392 0.03323818
0.0056156614 0.015792403 -0.030965868 -0.01517349 -0.0020305596 0.007470678 0.014209462 0.018975014
00000000: 9eda 9d3c 9d90 953c b56f dfba 48d2 c93c
00000010: fb95 f93c 82c8 edbc ed06 e83a 142d 0abd
00000020: 822f 8f3b 537e 2b3c 7447 05bb 8597 e83c
00000030: 5080 503c 65cc f0bc f624 33bb 3b02 7abc
00000040: 90d1 e5bc 938a ff39 683f 00bd 3a5d c23c
00000050: 5dd4 9c3b 77ae 543c ea86 a43c a400 e63c
00000060: b166 8cbc 2003 263b 42fe 06bd 1ebe 063c
00000070: 4771 da3c 9c52 b3bc 917d aa3c fb98 84bc
00000080: 9b9f 253c f9d9 7abc 85e7 e53b ed22 08bd
00000090: c235 d93c b647 05bc a560 063d ae94 4dbc
000000a0: 1301 803c ac25 88bc fba8 6ebc c6f6 0cbc
000000b0: 3623 8c3c 8b98 693c 25fd a83c 292f b5bb
000000c0: 90ea 9a3b 6afd b33c df52 07bc 38c1 17bc
000000d0: ce7e 0c3d 709a aebc de8c 17bc 577c ddbc
000000e0: 3771 65bc 7d5b 97bc aa78 583c 6727 f5bc
000000f0: 70d9 85bc 5698 21bd d6c8 e33c 1c00 c8bc
00000100: 095a 9abb d58b 08bd 8da7 62bc c29e 74bc
00000110: bdb9 edbc e4d1 2dbc 3728 883c 6586 1f3d
00000120: 19e1 143d 4122 24bd cb4b 2fbc 616e fbbc
00000130: 5952 a63c ef89 f83c 9a10 503c 621e 303c
00000140: bef3 f53c 7ba1 1dbc 1795 1bbd 6b5a d6bc
00000150: 4791 acbc 5d6c bd3c 8136 c63b 5058 043d
00000160: 5ba1 d03c b81e 39bb de7a 16bc 4b73 5abc
00000170: c219 0fbd ee94 66bc 7db8 9abc a85a e1bb
00000180: 20f2 0ebc f107 7bbc d657 94bc f9e5 e23b
00000190: 1b24 d93b 7ef3 003c 5524 6d3c 6a59 27bb
000001a0: 91f3 853b eaaf debb 8e19 033d 32d9 05b8
000001b0: 3160 d03c 8d69 a9bc 993f dfbc 5a8f 953b
000001c0: a1c6 02bd 0bf6 a83c 2752 a63c 0890 ee3c
000001d0: d906 043d e828 3d3c 660d 613c defa a8bb
000001e0: cf17 053d f410 7a3c 6042 07bc e858 04bd
000001f0: 83cd 963b 97e2 8a3b 8787 e33c 662d af3c
00000200: 7251 013d 26b7 853b 4a3b 413c 031b d5bc
00000210: 28eb e13b 288b 313c 974a 92bc 58bd 82bc
00000220: ca95 9a3c 2f95 86bc 911c 1dbc 818c e83c
00000230: 394b f53c 01eb cfbc 0548 e4bc 2846 d33c
00000240: 26bc 02bc bd65 a33b ddc1 abbc e2d3 59bc
00000250: 5975 eb3c 0740 adbc e929 553c d506 d73a
00000260: da22 373c b0a8 ed3a 11ed eebb b8cc 513c
00000270: c207 233c e433 49bb a2a6 c43c 5212 023d
00000280: efeb 993c 94e8 1cbc 8d3b cfbc d729 c1bc
00000290: fc07 8abc b7e5 27bb 3165 973c dfa2 243c
000002a0: 0a2b 033d d656 09bd 91f0 9cbc a572 063d
000002b0: 901f ccbc 552c bc3c 3280 ff3a 6fc5 62bb
000002c0: 6c37 d03c f578 e13c 8f3a 67bc 40f5 d0ba
000002d0: b827 093d 5a48 f33c 9715 693c ecb1 adbc
000002e0: 2c3d c1bc 4d46 d23c 8ae5 a63c 8e90 8dbb
000002f0: 1db5 0b3d da7d cb3c 809c f1bb e0b1 803c
00000300: fe6e 0c3d 58a4 a83c 01fc 8abc f407 07bd
00000310: 1bf7 353c da5d 5a3c baee 0dbd 0674 b43b
00000320: fe9b e2bc d0ea 503c 2067 b3bc 5e4d 06bd
00000330: 71f2 043d c2ed a63c 49ef 92bc bbc4 01bd
00000340: 60b3 963c 30be ecbc 46b8 dabb 5629 71bc
00000350: 9064 a53c b2e3 2d3c a4dc 973c b43b a4bc
00000360: f774 c83c aaed 563b 0792 cabc 9dc8 d1bc
00000370: 8fe2 ae3c a030 82bc 28fb 093c d30e 623a
00000380: ac00 8dbc 41e0 0d3d a0b6 4dbc 9239 773c
00000390: 1c9e b83c 3a90 423c 4818 0b3d 7c39 c2bc
000003a0: 7ed6 823b 6a35 02ba e02d 8f3c 226a 6fbc
000003b0: a7bf a6bc 6aca dabc a061 cb3c aee2 283c
000003c0: 0b08 05bd 58eb d3ba 04c3 e9bc a634 ebbc
000003d0: e493 b73c de94 8dbc 003d af3c c224 083d
000003e0: 9503 b83b 125f 813c 22ac fdbc 3b9a 78bc
000003f0: 2313 05bb 97cc f43b cece 683c 7d71 9b3c
